models/ft_transformer.pth (torch, 572222 bytes, 65 tensors)

tokenizer.CLS f4 [1, 1, 64]
00000000: 0189 5dbc 7246 b23e f139 f3bc 73e6 873b
00000010: d2f1 8abf 9f0e b03f 4ab8 d93e fe74 08bf
00000020: 14bf 693f f410 e3bd c141 61be bcb5 8bbf
00000030: 0f0e 4f3f ecdb d93e f4ee edbc 8c52 bc3d
00000040: 08d4 0fbf 5de9 9cbc f274 433e 1b42 31bf
00000050: 64cc 3a40 5ddb 72bf 65fd 0d40 e869 6d3e
00000060: fd5f d23f d3a9 503f 6803 953f 6d8c 143e
00000070: 1f86 cfbf 482d c03d de11 003f bc45 07be
00000080: d566 a63f 4d30 b4bd 0bcf 013e 3b8a f8be
00000090: 5668 2b3f 5b1c ab3e 54dd 80bf 612d b7be
000000a0: eb79 dcbe e78c 4dbf 159c f0be e549 b7be
000000b0: 024f f93e e107 a53e 2afe 95bf e73c cabe
000000c0: b1b9 c6bb b4fd b0be 97ba 6cbc 8046 0ebf
000000d0: 8cf7 f9bc b2d9 153e e8d0 f63e 28ce f3be
000000e0: 4930 53bf b257 4abf 389b 5e3f 50db 9e3f
000000f0: 4291 f0bf 46e6 23bf 80e7 373d e627 503e
-0.013521434 0.3481937 -0.029690715 0.0041473447 -1.0855048 1.3754462 0.42523414 -0.53303516
0.9130719 -0.11087218 -0.2199774 -1.0914836 0.80880827 0.425506 -0.029044606 0.09195432
-0.5618291 -0.019154245 0.1908758 -0.69241494 2.918725 -0.9486597 2.218591 0.23184931
1.6435543 0.8150913 1.1641665 0.14506693 -1.6212806 0.09383637 0.50027263 -0.13210195
1.3000132 -0.08798275 0.12676637 -0.4854296 0.6695608 0.3342007 -1.0067544 -0.3577681
-0.43061766 -0.80293125 -0.4699408 -0.35798565 0.4869309 0.32232574 -1.171819 -0.3949959
-0.0060646166 -0.3456856 -0.014448783 -0.55576324 -0.030513547 0.14633825 0.48206258 -0.47618222
-0.8249555 -0.7904006 0.86955595 1.2410679 -1.8794329 -0.64023244 0.04489851 0.2032772

tokenizer.num_embed_miss.weight f4 [64, 1]
00000000: c5ec b63e 2821 353f 1ee4 b23e 2c40 2f3d
00000010: ca93 dbbe b719 9dbe f701 e73e 9d0a 353f
00000020: 5ba8 f5be f779 733f a73b e1be b525 f0be
00000030: c8ff 15bf 9c80 f23e f75a a53e 4727 5a3f
00000040: 6d72 dabe d97e 2cbe e830 693e c63e 5a3f
00000050: 6f6b d33e e9ba bf3e b5e2 863e 48cf 543f
00000060: dab3 c23d 71c2 6b3e a630 1cbf 3b9c fcbe
00000070: 08c2 fe3e 17eb 11bf 0839 14bf dfcf 323f
00000080: 8f45 3f3d 3ba4 cc3e ebd6 e73e bca7 3cbf
00000090: 17ab f1be 2972 5a3f 9a06 5a3f 16e6 47bf
000000a0: e1b8 3c3f af4c 13bf 0fe0 b8be 2423 58bf
000000b0: 4a34 343f 2358 20bf 3889 3dbe 822b a63e
000000c0: c5fd 933d 9981 37bf 6bc0 09bf 908f 083e
000000d0: 0856 bdbd be32 bdbe 3f0b c23e 97c1 733f
000000e0: 4c42 4bbf 7fae 1dbf b059 d73e 080a 2a3e
000000f0: 2dff 5b3f 9181 bebe 418a 343f 65ef 2abf
0.35727516 0.7075372 0.34939665 0.04278581 -0.42886192 -0.3068368 0.45118687 0.7071932
-0.47980008 0.9510798 -0.43990824 -0.46903768 -0.58593416 0.47363746 0.32295963 0.8521618
-0.42665425 -0.16845264 0.22772563 0.85252035 0.41292903 0.3744729 0.2634484 0.83128786
0.0950696 0.23023392 -0.6101173 -0.49337944 0.4975741 -0.56999344 -0.5789952 0.69848436
0.046697196 0.39969048 0.45281157 -0.7369344 -0.47200844 0.85330445 0.85166323 -0.7808546
0.737196 -0.57538885 -0.36108443 -0.8442862 0.70392287 -0.62634486 -0.18509376 0.3245507
0.07226137 -0.71682125 -0.5380923 0.13336015 -0.09244925 -0.36952776 0.37899205 0.9521727
-0.79398036 -0.61594385 0.42060614 0.16605389 0.8593624 -0.37208226 0.7052346 -0.6677154

tokenizer.num_embed_miss.bias f4 [64]
00000000: 650a 573f 2a61 ebbd 220e 143f 8848 15bd
00000010: a918 26bf f9ac b5be a6b5 213f 9591 1f3f
00000020: e849 70bd 0a42 93be ccce 4bbf 743d b33d
00000030: 64db 7dbd ac20 183f 4154 f6be 3309 273f
00000040: 16c6 5a3e 64b0 b2be 38b0 5abf a119 7d3e
00000050: 746b 033f 0824 52bd 83b4 373e a9d5 59be
00000060: 5179 65bf ce1a 58bf f23b 3e3f 3692 cd3d
00000070: 553c 3ebf 9246 e7be cd71 603f 1bd3 053f
00000080: d3c0 2e3f 3671 61be eb92 25be 2689 493e
00000090: 4cc9 c93e 473e b8be bf1f 31bf ff52 94be
000000a0: b22f 0f3f 839b 21be 8e8b 81be 29b6 bb3d
000000b0: 9276 503d 9d97 2c3e 6cf3 f43e fb90 62bf
000000c0: 9c85 4d3e 2e89 803f ce4e cbbe 1bcc 653f
000000d0: 8be5 a23e 7429 1bbf 28fc 55bf 155b e23e
000000e0: a9f1 8e3e 6b0d 95be ac6a 263d d06b 34be
000000f0: fdbd 063f fe7b 90be 3dd3 683e beea 233f
0.84000236 -0.11493142 0.57834065 -0.036446124 -0.6488138 -0.3548353 0.631678 0.62331516
-0.058664232 -0.2876132 -0.7961242 0.08751956 -0.061976805 0.59424853 -0.48111156 0.6524841
0.21364626 -0.349002 -0.8542514 0.24716808 0.51335835 -0.051303893 0.17939954 -0.21272911
-0.8963824 -0.844159 0.7431022 0.10037653 -0.7431081 -0.45171028 0.87673646 0.52275246
0.68262976 -0.22015843 -0.16169326 0.19681224 0.3941139 -0.35985014 -0.69189066 -0.2896957
0.5593215 -0.1578198 -0.25301784 0.09165604 0.050894327 0.16854711 0.47841966 -0.8850247
0.20070499 1.0041864 -0.3970856 0.89764565 0.31815752 -0.6061013 -0.83587885 0.44210115
0.27918747 -0.291118 0.040629074 -0.17619252 0.5263365 -0.282196 0.22736831 0.64030063

tokenizer.num_embed_pc.weight f4 [64, 1]
00000000: f410 46bf 2305 153e b61b 593f 4071 21bf
00000010: a0da 03bf 9b5f 603e ac1c 0bbe 57e0 4ebf
00000020: 3dfb 1d3f b73c 093f edd6 b13e a5b0 fbba
00000030: 0283 2ebd c6c2 0cbf c6ce f03e c0cc 163e
00000040: 2719 fc3e 7cbc 083e 4100 60bf 9a01 6d3f
00000050: f7ea 433d 3e04 0bbf 2e2d 34bf 4db9 593f
00000060: cca5 213f 6ef0 753f caed 0a3f 1a11 94bd
00000070: af69 3e3f 3798 24bf eafd febe ff64 6b3f
00000080: f40a e23e 084f 643e a550 a73e 49e4 b73e
00000090: 1b5b 6d3f a2a8 303f 50a6 66bf c7dd 01bf
000000a0: da0a 64bf 38a4 973e c79e 863e 4c20 163f
000000b0: e36e 00bf a23f c5bd 320b 33bf 215e f93e
000000c0: 1d6f 55bf f76a 6bbf ed24 0cbf 8f9a 5fbf
000000d0: 363f 07bf f924 31bf 186e 40bf a6e7 d3be
000000e0: a791 b33d 0d1a 8cbd f526 61bd 5511 703f
000000f0: 1784 1ebe b978 fe3d 594b 293f 0551 503e
-0.7736962 0.14552741 0.8480791 -0.6306343 -0.5150547 0.2191147 -0.13585156 -0.80811065
0.61711484 0.5360827 0.34734288 -0.0019202424 -0.042605408 -0.549847 0.47032756 0.14726543
0.4923794 0.13353151 -0.8750039 0.9258057 0.0478315 -0.5430335 -0.7038144 0.8504837
0.6314361 0.9606999 0.5426909 -0.07229824 0.7438001 -0.6429476 -0.49803096 0.9195098
0.44148982 0.22295773 0.32678714 0.35916355 0.9271714 0.69007313 -0.9009752 -0.5072903
-0.8907906 0.29617476 0.26293012 0.5864303 -0.501692 -0.096312776 -0.6993896 0.48704627
-0.8337267 -0.9196009 -0.54743844 -0.8734521 -0.5283083 -0.6919704 -0.7516799 -0.4138767
0.08768015 -0.06840906 -0.054968793 0.93776447 -0.15480076 0.1242537 0.66130596 0.20343406

tokenizer.num_embed_pc.bias f4 [64]
00000000: 96fa 2dbf 824f 183f 70c8 eb3e 4813 77be
00000010: 10ed 0c3f e0fb 65be 3acb ad3e dfa5 cd3e
00000020: 32e3 ed3e 0bea 20bf 65d8 763f 3662 46bf
00000030: a638 093f ecec 5c3f 5c74 543f 48ba 903e
00000040: 6ee6 e9be 3390 3e3f 86bc 9dbd 084b 0bbf
00000050: 6393 563e b9c9 60bd 66e9 663e 7e7e 523f
00000060: 3a36 73bf 370c e63a 1a7b 67bf 35e2 43be
00000070: 2a49 723f d6a5 593f 8114 423f 11a6 a73e
00000080: 6c3f 93bd c71e e93e 2799 0a3d 3a1f 733f
00000090: aa92 c83e 13ed 423f 3ccd 593f bc00 583f
000000a0: 4fed 283f 9743 18be ac04 013e 7d7c 32bd
000000b0: c642 ccbe 9030 733f 534e 513f a1ab 413f
000000c0: cfe9 78be de78 66bd a30e 343e 6c0e 9abd
000000d0: ea02 3c3d 6751 163f bc18 d53e 3341 c9bd
000000e0: 3bed 54bf b3dc ab3e 0664 37bf b116 213f
000000f0: 2918 1ebe a61e 5cbf 9055 1c3e 2021 b53e
-0.6796049 0.5949632 0.4605136 -0.24128449 0.5504923 -0.22459364 0.33944112 0.40165612
0.464624 -0.6285712 0.9642394 -0.7749361 0.53602064 0.86299014 0.8299005 0.2826712
-0.45683616 0.7443878 -0.077019736 -0.54411364 0.20954661 -0.054879878 0.22549972 0.8222426
-0.9500462 0.0017551248 -0.90422213 -0.1912926 0.9464289 0.8501867 0.75812536 0.32743886
-0.07189831 0.45531294 0.033837464 0.9496952 0.39174396 0.76142997 0.8507879 0.8437612
0.65987104 -0.14869533 0.12599438 -0.043575753 -0.39894694 0.94995975 0.8176014 0.7565251
-0.24307941 -0.05626761 0.17583708 -0.07522282 0.045901217 0.5871796 0.41620433 -0.09826889
-0.83174485 0.33566818 -0.71637 0.6292525 -0.15438904 -0.85984266 0.15267015 0.35376835

tokenizer.num_embed_hours.weight f4 [64, 1]
00000000: 82fc 703f 2167 bbbe 0082 debe f8fc 05bf
00000010: bf13 36bf 4b05 5fbf e5b8 fbbd b349 01be
00000020: 0594 4abf 2ba2 4c3f 91c7 a9be 9066 e5bd
00000030: 3739 35bf b3c7 533f 502c 263e 0a85 0e3f
00000040: 22a4 eabe 88aa 5e3f 2ac8 46bf 323d 143f
00000050: d106 843e bc67 653f 52ea 773f cfc7 123f
00000060: 6023 1e3f d477 0dbf d09c ca3e faae 2dbf
00000070: 977e 11bf 3f53 5fbe 6a34 3ebd e545 56bf
00000080: 4f82 cfbb 28e3 f33e 96b2 38be 9b00 cfbe
00000090: cc73 56bf 7b4f 643f 4427 bd3e 5715 d93e
000000a0: 30c4 203f b24f 943d 29dd 40bf a20f 4dbf
000000b0: c953 c4be 65f3 003e c23c 8fbe d560 20bf
000000c0: dfa8 7a3c e666 3e3f 6c5f 10bf 7eb7 263f
000000d0: 8e47 82bd 585b 51bf 732e 56bf 840a 09be
000000e0: 634d 15bf 25d8 76bf 881c 3cbf 8a0e 493f
000000f0: 1069 bf3e 0b4e 173f ca0e fdbe 11c4 3dbf
0.94135296 -0.3660212 -0.43458557 -0.52339125 -0.7112388 -0.8711745 -0.12291125 -0.1262577
-0.7913211 0.7993495 -0.3316007 -0.11201203 -0.7079043 0.8272659 0.16227841 0.5567175
-0.45828348 0.8697896 -0.77649176 0.57905877 0.2578645 0.8961141 0.9684192 0.57336134
0.6177273 -0.5526097 0.39572763 -0.6784512 -0.56833786 -0.218091 -0.046436705 -0.837004
-0.0063326727 0.47634244 -0.18036875 -0.4043015 -0.8377044 0.8918378 0.3694402 0.42399094
0.6279936 0.07241763 -0.75337464 -0.8010198 -0.38345173 0.12592848 -0.27976042 -0.62647754
0.015299051 0.7437576 -0.563956 0.65123737 -0.06361304 -0.81780005 -0.83664626 -0.13382918
-0.5832121 -0.9642356 -0.73481035 0.7853781 0.37384844 0.5910346 -0.49425346 -0.741273

tokenizer.num_embed_hours.bias f4 [64]
00000000: 630a e93e 36c7 56bf 1b3b 4cbf 7292 6a3f
00000010: 4853 02bf d760 7d3e a5e4 acbe bda9 073f
00000020: 0e65 6b3f 8fcc 773f 4f39 c53e 3ae1 0dbf
00000030: df1f 9c3c 530a 423e ccf7 293f 61ac 963e
00000040: 10b7 79bf a239 3ebf ab42 543f 19b5 663f
00000050: e025 9e3e e58f c4bd 47d6 91be beca 26bf
00000060: 63bb 7e3d 38ee 003f cd52 23bf 3465 a43d
00000070: 6a59 3b3f d8bd 103f 9c7f 31bf c824 8e3e
00000080: 0187 363f 7982 563e 8d7e 513e dda7 75bf
00000090: caf8 563f 2b1e 61bf 8370 dcbe 74d8 7c3f
000000a0: eab3 323f d4b6 243f 120d 993e 9f66 16bf
000000b0: 7aaf b0be 8dab 203f 9bf9 6f3e 541c d83e
000000c0: d03f 34be 1f16 38bf a863 1cbf 4bad 6f3f
000000d0: 689d 333e a4d6 cf3e c6a2 15bf 2b25 783f
000000e0: 448e 38bf 3293 d83e f516 fbbe b43d 6b3f
000000f0: 81f8 9a3e edfd f5be b4a6 ac3e ae9a 9c3e
0.45515737 -0.8389772 -0.7977769 0.9162971 -0.5090833 0.24743973 -0.33768192 0.52993375
0.9195107 0.96796507 0.38520285 -0.55421793 0.019058166 0.18949251 0.66393733 0.2942839
-0.97544956 -0.7430669 0.8291423 0.90120083 0.3088827 -0.09597758 -0.28483793 -0.6515311
0.062190425 0.5036349 -0.6379822 0.080271155 0.7318331 0.5653968 -0.6933534 0.27762437
0.7129975 0.20948209 0.20458432 -0.95959264 0.8397337 -0.8793666 -0.4305459 0.9876778
0.6980578 0.64341474 0.29892784 -0.5875034 -0.34508878 0.62761766 0.2343506 0.42209113
-0.17602468 -0.71908754 -0.61089563 0.936238 0.17540514 0.40593445 -0.584515 0.96931714
-0.7209208 0.422998 -0.49040952 0.91891026 0.30267718 -0.48045292 0.33720934 0.3058676

tokenizer.cat_embed_sat1.weight f4 [2, 64]
00000000: 1034 343f a603 28bf 7489 4cbf bbe1 243e
00000010: 0725 b3bd 7c65 4f3f 3db1 13be 0c53 45bf
00000020: 409f 063f 3153 e03e 4b54 83bf 191d 643f
00000030: 5ae8 ee3e c062 2b3f 0f71 663e 5408 06bf
00000040: 1276 49bf 3ec2 4e3f 38db 6abe f363 63bf
00000050: 837b 53bf ed33 333f 69c0 ea3c ce21 1cbf
00000060: b93a 91bd f22a b2bf 8acf 003e 3eab a8bf
00000070: 4671 e23f 6b00 3cbf 7ddf c33e fac4 c93f
00000080: 2414 dabf 9eb9 b83e b24f e13d 2829 7d3e
00000090: cf22 10bf 8589 213f 30a2 4bbf fe20 22bf
000000a0: a74b 21bf 0274 1640 6961 3bbe 981b 8a3e
000000b0: 0993 473e 3c50 a93e 384f fc3f eee1 e9bc
000000c0: 5896 8d3f baea 1b3b e021 b9be 9392 ecbe
000000d0: 7870 eebe 5962 a83f e161 4ebe a1c1 283f
000000e0: 5b23 afbd 69e6 02bf 85de 843f 43c7 a8bd
000000f0: 7e16 a3bf 8a4f 383f e5c7 86be 242a 9dbf
00000100: 24aa 18bf 4f21 503f 816a a93f fb33 e93d
00000110: e6b9 d73f cb48 4fbf 480b ac3e cb5b 8a3e
00000120: 8b30 1d3f f72c 58bf 4ee3 8a3e 650a 71bf
00000130: 100c 833e 027c f73e f68b ab3d 26fd 5fbf
00000140: d67b c33f 79f6 953f f5b3 833d 04c9 553f
00000150: 46eb 7abf a39d 5e3f 0004 f33e a739 f63e
00000160: 6e7f 5ebf 8843 3d3f d4e9 a03f 351f 703d
00000170: c8cc 873f ae20 09bf e024 853f 9152 6f3f
00000180: bbab 533f 6bb8 02be 1e7a 15bf aca5 f7be
00000190: e5ca 68bf 7ecc cd3e 519e 0e3f a92b bdbe
000001a0: 425b 953f 8d7d 883f e599 00c0 17dd b8bf
000001b0: 3040 ea3f bec8 fcbf 7ba7 8c3f a665 ac3e
000001c0: 8a9f 503f 69a2 393f 6e7c 51bf a3e4 a3be
000001d0: a706 4cbe 22a3 a03e 86f5 52bf 7871 fc3e
000001e0: d972 233e e553 89bf 29f8 c53f 89a2 0c3f
000001f0: 022b 42be 0932 473f 3624 433f 38cd f5bd
0.7039194 -0.6563057 -0.79897237 0.16101734 -0.08747297 0.8101423 -0.1442308 -0.77079844
0.52586746 0.4381347 -1.0260099 0.891069 0.46661645 0.66947556 0.22504066 -0.5235646
-0.78695786 0.8076514 -0.22935188 -0.88824385 -0.8261034 0.7000111 0.028656201 -0.6098908
-0.070912786 -1.3919356 0.1257917 -1.3177259 1.7690818 -0.7343814 0.38256446 1.5763237
-1.7037396 0.36079115 0.11001529 0.24722731 -0.56303114 0.63100463 -0.79544353 -0.6333159
-0.6300606 2.3508306 -0.18298878 0.26974177 0.19489683 0.33069026 1.9711676 -0.028550114
1.1061506 0.002379103 -0.36158657 -0.46205577 -0.46570182 1.3155013 -0.20154525 0.65920454
-0.085516654 -0.5113283 1.0380408 -0.08241131 -1.2741239 0.71996367 -0.26324382 -1.2278485
-0.59634614 0.81300825 1.3235627 0.113868676 1.6853607 -0.8097045 0.33602357 0.27023157
0.61402196 -0.8444361 0.27126545 -0.94156486 0.2559514 0.48336798 0.08376305 -0.8749565
1.5272167 1.1715842 0.064308085 0.8350985 -0.9801525 0.86959285 0.4746399 0.4809086
-0.8691319 0.7393117 1.2571359 0.05862351 1.0609369 -0.5356549 1.0401878 0.9348536
0.82683915 -0.12765662 -0.5838946 -0.48368585 -0.9093459 0.40195078 0.5571032 -0.36947373
1.1668475 1.0663315 -2.009393 -1.4442471 1.8300838 -1.9748762 1.0988611 0.33671302
0.8149344 0.72513443 -0.8183049 -0.32010373 -0.19924413 0.3137446 -0.8240589 0.4930532
0.1596178 -1.0728728 1.5466357 0.5493551 -0.18961719 0.7781072 0.7622713 -0.12002033

tokenizer.cat_embed_sat2.weight f4 [1, 64]
00000000: 08d9 b9be aeef 2a3f c483 af3e 3143 bcbe
00000010: 61cc 943f 1dc0 64bd 9668 673f 63cd 7a3f
00000020: 0ed4 32bf 1dee 3cbd ac85 dc3f dde3 ed3f
00000030: 8d26 b5bf 2d51 57bf 2fa4 943d 1640 92bf
00000040: 2f20 3dbf e92f debd d05c 4fbf c147 b1bf
00000050: 624d 55bf 9c22 7c3d 4b45 65be cc0d ecbd
00000060: 62b8 94be 5734 2a3f 83e7 f03d 76b8 87bf
00000070: 404b 57bd 345c 1340 a5a2 71be c635 a9bf
00000080: 1217 8abe adf1 6c3b c3dd 01bf 1c58 1cbf
00000090: ad60 d73e adbc 5e3e d727 edbc b002 583e
000000a0: c06b c23e 4be8 493f 8a1b 943f 0ad4 83bf
000000b0: f8af cbbe 2504 8fbf d245 a43f 003f 0bc0
000000c0: 8422 413f bdd6 cc3e 993b 80be 34e6 fabe
000000d0: 3e17 2a3f 9206 1e3f 0cb7 053f 4564 fdbe
000000e0: d5bf 54bf ca9f 96be 7f5f 83bf 13a0 ae3e
000000f0: e2fb 633f 6132 113d 4f5e b73f 7256 23bf
-0.36298394 0.6677197 0.34280217 -0.36770013 1.1624871 -0.055847276 0.9039396 0.97969645
-0.6985482 -0.04612552 1.7228293 1.8585163 -1.415239 -0.8410824 0.07257878 -1.1425807
-0.73877233 -0.10848982 -0.81000996 -1.3850023 -0.833212 0.061556444 -0.22389714 -0.11526069
-0.29046923 0.66486114 0.11762907 -1.0603168 -0.052562 2.3025026 -0.235972 -1.3219535
-0.26970726 0.0036154792 -0.50729007 -0.61071944 0.42065945 0.21751662 -0.028949661 0.21094775
0.37972832 0.78870076 1.1570904 -1.0299084 -0.3978269 -1.117314 1.2833807 -2.1757202
0.7544329 0.40007582 -0.2504547 -0.49003756 0.66441715 0.61728776 0.5223243 -0.49490562
-0.8310521 -0.29418784 -1.0263518 0.34106502 0.8905622 0.035448436 1.4325656 -0.6380378

tokenizer.cat_embed_obj1.weight f4 [4, 64]
00000000: 3147 a8be 1346 9dbf b25d 8c3f b10d d43e
00000010: c426 083f ec9c 5d3d abb3 c53f f2bd 163f
00000020: 753b a1bf 875a 623f e23a 643f a384 48bf
00000030: e536 413f 8056 b2bc 6521 16be 6872 c33e
00000040: 6366 9d3f 7cbd 773e ff1b c1be c516 3fbf
00000050: b16e f5be ec0f 20bd 93e4 67bf e3bf b5bf
00000060: 0143 c63f ee65 05bf 6358 013f fa68 ff3e
00000070: 38a9 973e 5e1d 96be 5a61 0040 5214 0cc0
00000080: 822d f4bf c655 9c3f 19eb d63d c9c1 8bbf
00000090: 667e 9abe 602d b6bf 3c41 08c0 486b 983e
000000a0: 9644 5f3e d638 cc3d 8345 913f ba50 243f
000000b0: 80d1 ee3f 0676 55be 959a 99be f38a 50bf
000000c0: 65d5 dd3e 6496 85be ba36 c43f 57f3 ee3f
000000d0: f3a1 3abf e643 c73f 739f e73f 2159 813f
000000e0: 78f1 dabe 9ff2 c3bd a43d ecbe 8d23 c5be
000000f0: 093c 31be 115b c23f a905 d33e 67f4 a63f
00000100: 93e9 293f f40d 423f aa61 26bf 537a 8d3f
00000110: 88f3 6b3e ee5c 253f 72a1 5bbf 9558 843f
00000120: 5626 093e 4a24 70bf 1c67 a6bf f77e ac3f
00000130: 7d1e b93e ea8e 34bf 4d90 fdbe 6168 33bf
00000140: 0256 bd3d bf5c 5dbe 3110 c6be af5b 2ebf
00000150: c352 ac3f 0c3b 923f 3c23 c6bf 94d3 bfbe
00000160: c81b 8dbe 3f62 25bf b280 3dbf 389d e83e
00000170: 1e1d d23e 0f6d 4e3e c1a4 1ebe f543 66bf
00000180: 7f4c 803f 5118 9bbf 7a79 89bf 41b9 8fbf
00000190: 8067 703f f8e2 6e3f dbd2 99be 3f6a 24bf
000001a0: 6a2a b1be cbda a83e 0b9b a63e 2de6 233e
000001b0: 5536 0b40 0bd6 09bf 2085 8abf 882a b43f
000001c0: f920 903f ed23 a5be 04d2 f53f 272a 86bf
000001d0: 8f16 8dbf 2f0b 13c0 c53e 8b3f 8531 b4bf
000001e0: c082 5a3f 3b8b 87bd ec33 c33e ffc0 9cbf
000001f0: 9d80 8dbe dde3 d3be 64b3 093f 3885 4fbf
00000200: 6e4f c9be d3bf 933f 7229 5cbf f465 4cbf
00000210: 3342 f13f e67c 213e 5749 1c3f 82b5 84bc
00000220: 8910 7ebf 78d6 0240 78ee 0940 e8fb f23f
00000230: 081c 13bf 8075 bf3e 6896 133e 9dfb 0f40
00000240: 3acc e4be 6406 1ebe 2562 bbbf cdf2 153d
00000250: b5a1 593f 13d9 7dbf 3f4b 813f c93d acbe
00000260: 64d9 a2bf ca28 40bf dbe9 0e40 19ac 84bf
00000270: 8ba5 993e b6e0 8bbe 1f15 0bc0 6af1 d23f
00000280: 278b 453f a249 15c0 1081 003f 42b5 443c
00000290: 1c61 eabd 9dea 2abf 2cbb 173f 15e8 a4bf
000002a0: 3866 b93e b605 16be e267 bb3f 2a78 9cbd
000002b0: 7b9a e43f 6658 953b 25d6 9cbe 1b46 0140
000002c0: fe71 813f a220 6dbf 6a5f 833f 6ecf 9a3d
000002d0: 5e86 31bf 3a59 35bf fe60 50bf 8284 25bf
000002e0: a31d cdbe e647 173f 6e6c b83f b848 a13f
000002f0: 2088 a13e 8ebf ba3d 7189 0e3f 6e02 81be
00000300: 31bb 313e 749c e7bf b663 e4bf dd06 ddbe
00000310: 5ed4 003f 58e3 8d3f 7141 f0be 1083 edbd
00000320: c43b 683f 8ef1 35bf c70e 8fbf eb21 b53f
00000330: efb4 04be 7200 bdbf 1577 9e3f 5524 b7bf
00000340: d671 43bf 6ddb 7cbd b661 1dbc fa02 503e
00000350: ef88 88bf 6eca ce3f bafd be3f 260e 303d
00000360: da3c 42be 8420 27bf c79b 16bf 65f0 4d3f
00000370: d638 90bd 1ac6 82bf 72e6 93bf 6d8e d2bd
00000380: deb0 fb3e aa24 583f 2817 0cbe 9199 833e
00000390: b2bd cdbe 0423 fbbe c72e 85bf 815d 9abf
000003a0: d2e3 333f 2ee1 463e 7b47 303e c397 f53f
000003b0: caac e5bf fd90 af3f 533d 54bf d234 eabd
000003c0: f963 143f 7710 b43e 58c6 22bf 9641 b0bf
000003d0: 4dff 193f a072 e1be ec1b dbbe 4459 8dbe
000003e0: 56e0 adbe 9f1c 05be 366b fdbe bb25 7d3f
000003f0: 02b9 663f 4717 53bf 6951 7fbf 82e8 c3bf
-0.32866815 -1.228701 1.0966094 0.41416696 0.5318415 0.05410473 1.5445455 0.58883584
-1.259627 0.88419384 0.8915235 -0.7832739 0.7547439 -0.021769762 -0.14661177 0.38173223
1.2296871 0.24193376 -0.37716672 -0.7464412 -0.47936013 -0.039077684 -0.9058315 -1.4199184
1.5489198 -0.5210866 0.5052549 0.49884778 0.2962129 -0.2931928 2.0059419 -2.1887403
-1.9076388 1.2213676 0.1049406 -1.0918514 -0.3017456 -1.4232597 -2.1289816 0.2976935
0.21803507 0.09971778 1.1349338 0.6418568 1.8657684 -0.20845804 -0.3000075 -0.8146202
0.4332687 -0.260913 1.5329201 1.8668011 -0.72903365 1.5567596 1.8095535 1.0105325
-0.4276235 -0.09567761 -0.46140778 -0.38503686 -0.17308058 1.5184041 0.41215256 1.3043336
0.6637203 0.7580254 -0.64992774 1.1052955 0.23042119 0.64594924 -0.8579322 1.0339533
0.1339353 -0.9380537 -1.3000216 1.3476247 0.36156073 -0.7053057 -0.49524155 -0.70081145
0.0924492 -0.21617411 -0.38684228 -0.6810865 1.3462757 1.142427 -1.5479503 -0.3746611
-0.27560258 -0.64603037 -0.740245 0.45432448 0.4103784 0.2015879 -0.15492536 -0.89947444
1.0023345 -1.2116796 -1.0740197 -1.122841 0.9390793 0.93315077 -0.30043682 -0.6422462
-0.34602672 0.32979426 0.32540163 0.16005774 2.1751912 -0.5384223 -1.0821877 1.407548
1.1260062 -0.32253972 1.9204717 -1.0481614 -1.1022509 -2.2975576 1.0878531 -1.4077612
0.8535576 -0.06618353 0.3812555 -1.2246398 -0.27637187 -0.41384783 0.53789353 -0.8106265
-0.39318413 1.1542915 -0.8600074 -0.7984307 1.8848327 0.15770301 0.6104941 -0.01619983
-0.9924398 2.0443401 2.15518 1.8983126 -0.5746465 0.37394333 0.14412844 2.2497323
-0.44687063 -0.15432125 -1.4639326 0.036608506 0.8501237 -0.99159354 1.0101088 -0.33640888
-1.2722592 -0.7506224 2.2330234 -1.036502 0.30009112 -0.27319878 -2.1731641 1.6479924
0.77165455 -2.3326192 0.50196934 0.012006106 -0.114443034 -0.6676424 0.59269977 -1.2883326
0.362108 -0.14650616 1.4641078 -0.07640107 1.7859644 0.004557657 -0.3063213 2.019904
1.0112913 -0.9262792 1.0263493 0.07559095 -0.69345653 -0.70839274 -0.81398 -0.64655316
-0.40061674 0.59094083 1.440809 1.2600317 0.31549168 0.091185674 0.5567847 -0.25197166
0.17356564 -1.8094621 -1.7842929 -0.431693 0.50324047 1.1085005 -0.46924928 -0.11597264
0.90716195 -0.7107171 -1.1176385 1.4150976 -0.12959646 -1.4765761 1.2380091 -1.4307963
-0.76345575 -0.0617327 -0.009605816 0.20313635 -1.0666789 1.6155527 1.4921181 0.042982243
-0.18968526 -0.6528399 -0.5883145 0.8044494 -0.070420906 -1.0216706 -1.1554701 -0.10281072
0.49158376 0.84430945 -0.13680708 0.257031 -0.4018379 -0.49050152 -1.04049 -1.2059785
0.702695 0.19421837 0.17214768 1.9186939 -1.7943356 1.3716122 -0.82906073 -0.11435856
0.57965046 0.35168812 -0.635839 -1.3770015 0.60155183 -0.44032764 -0.4279474 -0.27607167
-0.33960217 -0.129992 -0.49495858 0.988857 0.9012605 -0.82457393 -0.997336 -1.5305331

tokenizer.cat_embed_obj2.weight f4 [2, 64]
00000000: 59a2 58bf 4fa8 923c d1bf ad3e 2183 8fbf
00000010: c9fe 2b3f 40f7 7abf f590 4cbe 6ea8 fa3e
00000020: 5e15 28bf 229d 3340 a482 673f 6558 5dbf
00000030: 7075 14bc c83f 753e 0b03 d0be 7631 693f
00000040: 9daa 0bbf 64d7 ec3e dbc0 f73d 8fb5 5b3f
00000050: 4bc0 d03e dc8b 4abf c1e4 2540 ed66 b33d
00000060: ea6b 80bf 4b0c a63e 1d46 183f 2bd2 213f
00000070: 6d95 b5bf 9e95 883f 5622 14bf fa91 78be
00000080: 64b6 a5bf 5164 86bf 6318 f9bd 673b acbf
00000090: 6a6c d53f e4fa 4d3f 2172 893f 507a 06be
000000a0: 5252 c13e f4e1 7c3f 60a9 26bf 0434 2f3e
000000b0: 4d37 61bf 4a0a cbbf 5873 263f 748a 7bbf
000000c0: 76cd bdbe 28ca 92bf e927 24be ecce 8cbf
000000d0: 148b 1b3d 455d 0abe bcbd 73bf b775 5ebc
000000e0: f4d6 e2bd 5ca8 0dc0 d19c b33f ea3f b9bf
000000f0: 514c c2be 7846 113f c0bb d03f a35e d53e
00000100: 81fb 553e ef3b aebb 692f 0b3f f73f 133f
00000110: b1b0 9e3f 535b f9be 00d5 cc3e 112d 61bf
00000120: eb48 9ebf 254e 383f 7426 8c3f 922d 81bf
00000130: b3d0 8e3f 04a0 833e 3c91 3fbf 85b1 2b3f
00000140: e6cb ddbf 959a 14bf 67df 4e3e 5c55 663e
00000150: bd58 37bf cfd4 173f 4080 d6be f5ab 2bbf
00000160: d337 a1bf 4e42 cebe 6d3f dfbd ec49 29bf
00000170: fb0e c1bb 0cd6 98be ae6d 7ebf 6d39 533f
00000180: 8e92 c43e 7b8f 933f 263d 4c3e 5200 c4be
00000190: 8572 0040 d226 d0bf 433c 9dbe a8c0 ab3f
000001a0: e4e9 a2bd baca 9e3e 5943 20c0 d629 7bbf
000001b0: 8cda d93e a640 963f 4221 323f cedb 9abf
000001c0: 41c3 473f 407f 86bf 2737 85bf 7b43 0cbd
000001d0: ad19 253f a0b8 85bf 6e55 2dbf bca9 67be
000001e0: 4b90 0e3f f31d c43f b651 8e3f f862 a6bf
000001f0: 8023 a3bf 5127 b93f 6425 773e de56 3ebe
-0.8462272 0.017902521 0.33935407 -1.1211892 0.67185646 -0.98033524 -0.19977172 0.48956627
-0.65657604 2.8064656 0.90433717 -0.86463004 -0.009061202 0.23950112 -0.40627322 0.91091096
-0.5455721 0.4625808 0.12097331 0.8582391 0.40771708 -0.7911966 2.592087 0.08759866
-1.0032933 0.32431254 0.59481984 0.63211316 -1.4186226 1.067066 -0.5786489 -0.24274436
-1.2946286 -1.0499364 -0.121628545 -1.3455628 1.667371 0.80460954 1.0737954 -0.13132596
0.37758118 0.9878228 -0.65102196 0.17109686 -0.8797501 -1.5862515 0.6501975 -0.9825814
-0.37070817 -1.1467943 -0.1603085 -1.1000648 0.037974432 -0.13512142 -0.95211387 -0.01357787
-0.11076155 -2.2134008 1.4032232 -1.447263 -0.3794885 0.5674815 1.6307297 0.41673765
0.20896722 -0.0053172032 0.5436922 0.5751948 1.2397672 -0.48702487 0.40006256 -0.8795939
-1.2366003 0.7199424 1.0949235 -1.0092032 1.115744 0.2570802 -0.74830985 0.6706775
-1.732785 -0.58048373 0.20202409 0.224935 -0.7161978 0.59309095 -0.41894722 -0.6705926
-1.2595161 -0.4028496 -0.109007694 -0.6612842 -0.0058916784 -0.29850805 -0.9938611 0.825095
0.38393062 1.1528162 0.19945201 -0.38281494 2.0069897 -1.6261847 -0.3071004 1.3418169
-0.07954767 0.31014043 -2.5041106 -0.9811071 0.4254955 1.1738479 0.69582 -1.2098329
0.7803231 -1.0507584 -1.0407456 -0.034244042 0.64492303 -1.0446968 -0.6770848 -0.22623342
0.55688924 1.532164 1.1118686 -1.2998953 -1.2745209 1.4465123 0.24135357 -0.18587825

tokenizer.cat_embed_org1.weight f4 [15, 64]
00000000: 153f e2be 776f e33f 6730 183f 292b 743f
00000010: 2c26 fb3f 96fc e13f 3b99 9fbd f39b b1bc
00000020: c5d3 b93f 5f66 e43f b4c9 0fbf 93f8 bc3e
00000030: 6a05 773f bf52 623f 0922 5d3e e3e8 273f
00000040: 9250 8d3f 1d49 aa3f f5f6 74bf f8fe 41bf
00000050: 1f18 3b3d 1551 4abf 39bd 243f ba86 c0bf
00000060: 8f04 86bf eaee 403f 5826 9fbf f54c 9abf
00000070: 0582 5fbf 084d 963f 0ade 073f 00a0 1f3f
00000080: 533e 0f3d efce 9e3d 0af4 423d 5fe2 6fbf
00000090: a26f 04bf dde2 75bf 983a ffbd bb42 7b3e
000000a0: 0eda dbbf d7ef ccbe 989f 453f 3a09 fe3e
000000b0: 0447 92bf 86da 9dbf 2135 c5bd 3cc1 743b
000000c0: 79e4 b03e a595 e3bf 8216 21c0 7a6c 83be
000000d0: fe1c 0d3f f970 9a3f 1a0c c6bf b01f 20bf
000000e0: 2915 6b3d a3d1 97bf eae5 b8be b61f cc3f
000000f0: e5e7 1cbf 9d97 483f f62c d63f 470f a8bf
00000100: c970 d83e 3b93 3d3f 9134 af3f c233 643f
00000110: 4219 92be 4062 37bf 1d01 9a3e 2600 a53e
00000120: 347b 4d3f 8f3a 4bbf 37a2 98bf a9bc 32bf
00000130: 4e98 a0bf ba2a 073f c8bd 74be 8e79 6d3e
00000140: c73a abbf ed5d 8e3e e664 28c0 acc4 51bf
00000150: e13b 8bbf a2ff 423f cfe3 0a3f 5088 833f
00000160: b9ff a23f 9af8 b3bf 076d 80be 0e05 7abf
00000170: 7a05 5c3e 8d6f 3c3f 3529 863f 5994 2fbf
00000180: 834f aa3f 652d cabf d8cf 30c0 70c4 71be
00000190: 8754 1940 7ae7 dd3f ca58 db3e a3a4 57bf
000001a0: 4091 7dbf 1463 adbe 6bce fb3e e0f1 ae3b
000001b0: 4389 33bf dd3b 753e c084 773f cc8f 6f3e
000001c0: 1bcb 993e 4acd f93f cdf8 b5bf bbcc e63e
000001d0: a5a7 223f ac54 2cbf 8862 5fbf 42ae df3f
000001e0: c568 883f d261 65bd f22e ff3f 8971 d1bf
000001f0: 517c 893e 6cbb 92bf 7117 213f 4d42 d8bd
00000200: 3f17 a4be d834 ef3d 072a 803f d8d4 9abe
00000210: 0296 3a3f c42b 743d 0936 f5be deb8 94be
00000220: 8427 b83d f20b f23d 0249 09bf 1a55 c2bf
00000230: c8b1 bebf 50a6 47be bbbe 423e b51a d5be
00000240: b4b3 a63f 40e3 58bc bd24 8d3e d24c abbd
00000250: 9359 4bbf 5531 9dbf 5350 94bf a019 953f
00000260: 2dd1 aabf 6897 8c3d 5cec 2ebd 82d2 89bf
00000270: 4783 9b3f d91b 0ec0 96ce 71bf 8147 d6be
00000280: 1c28 15bf ae56 923e a50a 1140 4ea6 bcbf
00000290: 4a93 643d d753 4c3e d165 fd3e 718c 52bf
000002a0: 900d a53e 99ac 13c0 e643 3a3f 58e4 cabf
000002b0: 9ede 1fc0 487a 56be fa73 1bbf 2d50 ebbd
000002c0: 23f5 1e3f 8b59 65bf e9cf 043f d965 f3bc
000002d0: c2c7 f2bd 889c 63bf 0d1e 053f 433f 38bf
000002e0: edfd 7e3f 3dd7 893c 38bc e33f fe7e dfbe
000002f0: c844 03c0 379a 9bbf 9106 1fbf d226 81bf
00000300: 7135 e13f a76d 15bf 14a1 593f 5123 12be
00000310: abab 5cbf b21c 663d aa29 9abe 8312 24bf
00000320: 8673 57be d1a1 87be 0185 e73f 4309 8cbf
00000330: 2fe9 c83f 6ded 1fbf 8a7b d5be 8b0f bcbf
00000340: 0e02 f03e 1d3f 30c0 530e e1be eacb 4abe
00000350: 08ef cc3e 7e3e 3e3e 7802 c7bf 1e99 b1bf
00000360: 0fc0 9bbf 7748 c33f 6f36 b73f 23a8 87bf
00000370: 86d4 dc3f 5768 a03f b611 6fbf f11c 0bc0
00000380: 462c 81bf 09dc e7bf e887 7abf 2fae 1c3f
00000390: 2820 d3bf e063 a7bf 2dc8 523e 520c 673f
000003a0: 887c ad3f 1316 103f 043e 0fbf 31ac 0bbe
000003b0: 835d d73e 7928 913f 2e24 113f b8f3 f73f
000003c0: 1040 f9bf fb46 cdbe 651e d13f 572f ca3e
000003d0: 5776 ab3f cf3a 9f3f 6999 5fbf 3cd9 66bf
000003e0: e401 53bf f64b 653f 659f 833f bd2f ad3f
000003f0: 36a5 e33f 23b9 423f 77a7 f0be e9e9 fbbf
-0.44188753 1.7768391 0.59448856 0.9537836 1.9621024 1.7655208 -0.07792898 -0.021680808
1.4517752 1.7843741 -0.5616715 0.36908397 0.96492636 0.8840751 0.21595015 0.6558973
1.1040213 1.3303562 -0.95689327 -0.75779676 0.0456773 -0.7902997 0.6435123 -1.5041115
-1.0470141 0.75364554 -1.2433577 -1.2054735 -0.8730777 1.1742258 0.5307318 0.62353516
0.034971546 0.07754313 0.047596015 -0.9370479 -0.5173284 -0.9604929 -0.12462348 0.24537174
-1.717592 -0.40026733 0.77196646 0.49616414 -1.1427922 -1.2332313 -0.09629274 0.0037346622
0.3454931 -1.7780043 -2.5169988 -0.256687 0.55122364 1.2065727 -1.5472443 -0.6254835
0.057393227 -1.1860851 -0.3611291 1.5947177 -0.6129134 0.78356344 1.6732471 -1.3129662
0.42273548 0.7405278 1.3687917 0.89141476 -0.28534895 -0.7163429 0.30078974 0.32226676
0.8026612 -0.7938623 -1.1924504 -0.6981912 -1.254648 0.5279957 -0.23900521 0.231909
-1.3377312 0.27806035 -2.6311584 -0.8194072 -1.0877649 0.76171315 0.5425386 1.0275974
1.273429 -1.4060242 -0.2508318 -0.9766396 0.21486464 0.73607713 1.0481325 -0.68585736
1.3305515 -1.5795103 -2.7626858 -0.23610091 2.3957841 1.7336266 0.42841178 -0.8423559
-0.9904976 -0.33864653 0.49180922 0.0053388923 -0.7013132 0.23948617 0.96686935 0.23394698
0.3003777 1.9515774 -1.4216553 0.45078072 0.63537055 -0.673167 -0.8725972 1.7475054
1.0656973 -0.05600149 1.9936202 -1.6362773 0.26852658 -1.1463447 0.62926394 -0.10559521
-0.32048985 0.11680001 1.0012826 -0.30240512 0.72885144 0.05961205 -0.47892788 -0.29047292
0.08991912 0.11818685 -0.53627026 -1.5182221 -1.4898005 -0.19497037 0.1901807 -0.41621938
1.3023591 -0.013237774 0.27567092 -0.08364262 -0.79433554 -1.228068 -1.1587013 1.1648445
-1.3345085 0.06864816 -0.04270588 -1.0767367 1.2149438 -2.2204497 -0.9445585 -0.41851428
-0.5826433 0.28581756 2.2662747 -1.4738252 0.05580453 0.19953857 0.49491742 -0.82245547
0.3223691 -2.3074095 0.72759855 -1.5850935 -2.4979625 -0.20945084 -0.6072384 -0.11489902
0.620928 -0.89589757 0.51879746 -0.02971165 -0.11854507 -0.8891072 0.5199898 -0.7197153
0.9960621 0.016826266 1.7791815 -0.43651575 -2.051073 -1.2156438 -0.62119395 -1.0089972
1.7594434 -0.5837044 0.8501141 -0.14271285 -0.86199445 0.05617971 -0.30109912 -0.64090747
-0.21040162 -0.26490644 1.8087465 -1.0940326 1.5696162 -0.6247166 -0.41695815 -1.4692243
0.46876568 -2.7538521 -0.4395624 -0.1980435 0.40026116 0.18578526 -1.5547628 -1.3874853
-1.2167987 1.525649 1.4313487 -1.0598186 1.7252357 1.2531842 -0.933864 -2.1736414
-1.0091636 -1.8114024 -0.97863626 0.61203283 -1.6494188 -1.3077354 0.20584174 0.90253174
1.3553629 0.5628368 -0.55954003 -0.13639905 0.4206353 1.1340476 0.5669583 1.9371252
-1.9472675 -0.40093216 1.6337401 0.39489242 1.339549 1.2439822 -0.8734346 -0.90175223
-0.8242476 0.8956903 1.0283018 1.3530194 1.7784793 0.76063746 -0.47002766 -1.9680759

tokenizer.cat_embed_org2.weight f4 [5, 64]
00000000: 98d4 2ebe dc3f 043f 7033 30bd 3d06 493e
00000010: 901d c2bd 5768 1e3e f9ca 45bf 4534 a6be
00000020: 9264 38be 6ea9 e2bf 0ccd d53e ccf3 dabe
00000030: bf43 a33f db11 f8be 4a7c 043e 01fb b3bf
00000040: d6dd abbf efde 153f 2b56 833f 30e1 4fbf
00000050: 8698 3e3f 2be6 aabf f08e 8cbe cc6f 8a3e
00000060: a703 4abf 3f84 9bbf c01d 29be 03ff a4bf
00000070: aad4 c1be 0b0d df3e e552 5fbe 42b4 65bf
00000080: eb29 20bf fa58 73bf dfaa 893e 9135 58bf
00000090: 25bb fc3f 9d6a a33e 040a 89be a29e f33f
000000a0: 7ffa fd3f a0f9 91bf 1b8c 40be c753 723f
000000b0: f679 b83e 27a7 b4bf f5ef 55be 4008 8cbf
000000c0: 3536 1c40 938c 4cbe 2d64 1840 2162 593f
000000d0: f38d ea3d 05c3 a9bf 8b83 073f 0312 14c0
000000e0: 8912 443f bc03 743f b1c1 793f 7232 86bf
000000f0: b504 593f 308e 98bf 626b 493f d223 0e40
00000100: a635 79bd 4458 833d 3ab2 97be e924 bc3f
00000110: 2414 533f 2f12 e0bf dd81 15bf f20e 6e3f
00000120: a194 7dbf b262 c1bf 0ec9 bb3d 40fb 39bf
00000130: a7cd d43f 5a72 32bf 98db 273f fec9 9ebe
00000140: fdae b4be 8307 b93f abbc 353f 85f8 803f
00000150: a830 273f 8164 2c3f 8b6c 3f3e 1238 15bf
00000160: 8dcb 043f ba46 a5bf d8ec 1cbf ec89 51bf
00000170: 1d46 bdbf 6622 99be fd8b a7be 8d58 29bf
00000180: 9dca b5bf 2635 7fbe 25fa 233f db9b e3bd
00000190: 58ca bbbd aab3 99bf 4ca6 5d3e d369 d5bf
000001a0: cdfd fe3f aed4 06bf 6625 dabe ca5e cb3f
000001b0: 4f9f c33f 691f bd3f 7e76 a83f e586 60bd
000001c0: 16ec bb3f fc8a 0f3d 79d3 ac3e a235 64bf
000001d0: bed8 1f3f 1a19 b53d da34 0d3f efa6 7fbf
000001e0: 8354 293d 40c8 893e 8c2b 993d 400d abbf
000001f0: 572d 633f 4eec 513f 8bc5 e7be 7395 a7be
00000200: d90e 2dc0 e871 51be b970 b23f 1522 4abf
00000210: d658 a9bd 3d64 d53f 0c64 d13e 9b88 2a3f
00000220: b1af e73e f99e 67bf e638 a4bf 501a 98bb
00000230: 8847 86bd 63b7 8cbd 0a33 e7bf 75ea f73d
00000240: 86a9 bcbf bd7e 55be 118e 6cbe f23c 3a3f
00000250: 9291 553f c947 7fbe 170e 653f bd17 933e
00000260: 0893 1cc0 245e 403f 732d 3dbc 21e3 72bf
00000270: 7421 ab3e 101c efbe 4166 b0bf d7d8 813e
00000280: 8c25 ef3d 18bf e53e ea21 353f 020a 983f
00000290: f140 78bd e07c db3f 9913 1d40 192b a9bf
000002a0: 78a4 8440 a3dd f8bf 7ba5 d83e c30e ac3e
000002b0: 59e8 a4bf 228d 13bf 4424 8bbf 4619 463f
000002c0: 0ce8 cabe 894b c4bf 9566 27bf 3dea 60bf
000002d0: 14b8 bfbd 4015 e5be 431a 4f3e ee4c 0f3f
000002e0: 0591 5b3f 43aa 97bf 7668 643e a090 e53e
000002f0: 7869 febf 5a3c 96bf 0a5a 033f 8b7d cfbe
00000300: 3d02 8a3e 46cb 8d3e e495 c5bf 133b c93f
00000310: 9689 36bf 95ed 57bf 5038 19bf 1ba9 8c3f
00000320: 7c14 edbf ee34 1a3f 361f 2a3f 30fa 4ebf
00000330: 91cb a0bf 1a0e 5c3f fdfc 86bf 8b9d 763f
00000340: 31a7 2f3e 77df 33bf 28dc 5abf 94b1 87be
00000350: 9b61 433f 9b1d c63d aedd 633f 8655 2f3f
00000360: 479c d2be 4106 b4bf 8fba 86be cbd0 f13d
00000370: 29c2 c83d aa75 08bf 7d5c 1240 c644 3abf
00000380: 1db6 b0bf 5b04 073e 4236 663e 208d 9ebe
00000390: 71b8 a3be 8134 e03e 4dc4 193f 467c 1fbe
000003a0: 3ee8 4f3e 110b c03e 1993 3a3f 3c6b af3e
000003b0: 3cc7 b5be 6ceb 01bf 7eef 4fbf 1988 f23e
000003c0: 6359 ebbf 6148 1240 1ae4 6dbf 492f 883f
000003d0: 2894 713f 0148 b63f a82e 2fbf 9fa1 9ebe
000003e0: 8cc7 633f 7bfd 85bf 43de 3fbf a2d8 98bf
000003f0: 347c b5bd b681 733e 0c8b 403f a72d b4bf
-0.17073286 0.5165994 -0.043017805 0.19631286 -0.09478295 0.1546949 -0.77262837 -0.32461753
-0.18007115 -1.7707956 0.41758 -0.42764127 1.275505 -0.48451123 0.12938038 -1.4060975
-1.3427074 0.58543295 1.0260671 -0.81202984 0.7445148 -1.3351492 -0.27452803 0.2703842
-0.78911823 -1.2149733 -0.16515255 -1.2890323 -0.37857562 0.43564638 -0.21808966 -0.89728177
-0.6256396 -0.9505764 0.26888177 -0.84456736 1.9744612 0.31917277 -0.26765454 1.9032786
1.984207 -1.1404305 -0.18803446 0.94659084 0.3603055 -1.4113511 -0.20892318 -1.0940018
2.4408085 -0.199755 2.3811142 0.8491536 0.11452856 -1.326264 0.52935094 -2.3135993
0.7659078 0.953182 0.97561175 -1.0484145 0.8477281 -1.1918392 0.7867948 2.2209363
-0.06084218 0.0641332 -0.29628164 1.4698764 0.8245261 -1.7505549 -0.5840128 0.92991555
-0.99054915 -1.5108244 0.091692075 -0.72649 1.662526 -0.69705737 0.6556945 -0.31013483
-0.35289755 1.4455417 0.7099101 1.0075842 0.6530862 0.67340857 0.1869375 -0.5828868
0.51873094 -1.2912209 -0.61298895 -0.8185108 -1.4787022 -0.29909056 -0.3272399 -0.6615074
-1.4202458 -0.24922618 0.64053565 -0.111137114 -0.091694534 -1.2007954 0.21645468 -1.667292
1.9921204 -0.52668273 -0.42606658 1.5888302 1.5282992 1.4775211 1.3161161 -0.054816145
1.4681423 0.035044655 0.3375509 -0.8914434 0.624401 0.08842678 0.5515877 -0.99864095
0.041340362 0.2691059 0.07479009 -1.3363419 0.8874106 0.820012 -0.452679 -0.32731208
-2.7040312 -0.20453608 1.394065 -0.78958255 -0.08268897 1.6671215 0.40896642 0.66614693
0.4525123 -0.9047695 -1.2829864 -0.0046418086 -0.06556612 -0.06870916 -1.8062451 0.12105266
-1.4739234 -0.20849128 -0.23101069 0.72749245 0.8342525 -0.24929728 0.89474624 0.28729048
-2.446474 0.7514365 -0.0115464805 -0.9487782 0.3342396 -0.46701097 -1.3781205 0.25360748
0.116770834 0.44872355 0.70754874 1.1878054 -0.060608808 1.7147484 2.4543211 -1.3216277
4.1450768 -1.9442638 0.42313752 0.33605012 -1.2883407 -0.57637227 -1.0870442 0.77382314
-0.39630163 -1.5335552 -0.653909 -0.8785742 -0.09361282 -0.44742775 0.20224862 0.5597676
0.8576816 -1.1848835 0.22305474 0.44836903 -1.9875937 -1.1737168 0.51309264 -0.4052547
0.26954833 0.27694148 -1.5436368 1.5721153 -0.7130369 -0.84346896 -0.5985155 1.0989107
-1.8521876 0.60237014 0.66453874 -0.80850506 -1.2562124 0.8595902 -1.0545956 0.9633414
0.17153622 -0.70262855 -0.8549218 -0.2650267 0.7632081 0.096736155 0.8901013 0.68489873
-0.41134855 -1.4064409 -0.26314208 0.11807402 0.09802658 -0.5330454 2.286895 -0.7276119
-1.3805577 0.13185255 0.22481635 -0.30967045 -0.31976655 0.43790057 0.60065156 -0.1557475
0.20303437 0.37508443 0.72880703 0.342615 -0.35503566 -0.5074985 -0.8122481 0.4736946
-1.8386654 2.2856677 -0.9292618 1.063943 0.94366693 1.4240724 -0.68430567 -0.30982682
0.8897636 -1.0467981 -0.7494852 -1.1941111 -0.088615805 0.2377995 0.7521217 -1.4076432

tokenizer.bool_embed.weight f4 [64, 10]
00000000: d12c 97be 82be 013e 958f 9d3e 0e8e 2abe
00000010: 751f b73d 621b 31be f31d 37be d0c1 96be
00000020: 04dc 943e f555 8e3e 4b5a a6bc ff74 743c
00000030: fad7 0f3e b79d 6cbe cc2c 5dbd 62d9 423e
00000040: 235b a2bd 3626 713e 2ba4 27be 0d4d cf3d
00000050: bcf1 7cbe 6987 91bd 2ef5 26be 77b9 d3bc
00000060: 5afb d7bd c893 c1bd 8bab 5f3e 9113 5dbd
00000070: 4fd2 8dbc 6c0d 6dbe 4de4 30be b06e 71be
00000080: c5d0 903e ac72 f6bd a7b1 8b3e 3713 983e
00000090: 0689 6e3c 4a69 b8bd e162 68be af8d 66be
000000a0: 387b 6dbe 6c48 37be a340 babd a408 bdbd
000000b0: ba86 073e 072c 74be 995d 143d ae4e 8f3e
000000c0: fc70 31bc bc91 e83d 0f25 be3d c8cc 52be
000000d0: b6e1 5b3d f47f 41bc b89e 40be 664c 8bbe
000000e0: 1d8d 3b3e 557d 3dbe f150 033d 48e3 ccbd
000000f0: 3ddd 513e 1272 13bd 7e7b f2bc f6db 50be
00000100: b04c aabd 6e0f c5bd 2c98 51bd c297 2dbe
00000110: 20db 0abe 11e9 62be 07ec cf3d 07fc 813e
00000120: 38d3 3abe ae73 00be 7810 7bbe 48b6 67bc
00000130: 7cc4 6abd 65c3 cabd 7500 85bc c0d1 713d
00000140: cfec 2abd 67e1 86be 2ba0 5f3c d268 4cbe
00000150: a2ab 0a3e fe47 563e 0088 95be db04 93bc
00000160: fc94 063e 2a41 48be efb7 4e3e 9dae 673e
00000170: 15b8 69be 2bab d73d cd9a eabc cfb5 893e
00000180: bce6 87bd 1b37 ddbd cf6a 45be c581 733e
00000190: 94aa 353e 2bc0 533e fd8f 873e 5466 8bbe
000001a0: f82a 753e cea6 d9bb 6974 123e 96dd 25be
000001b0: b8d4 82bc fc52 f43d e610 083e d5d3 913e
000001c0: 9f42 993e 362b 48be 2741 3d3d 8d23 743d
000001d0: 0eb8 aabe 4984 573d a6c8 b5bc 8e5f b73d
000001e0: ec45 9ebd 99da 583e 6f55 f6bd 32d3 ecbd
000001f0: d5ce 5c3e e69e 103d b969 ba3c 8eca 713e
00000200: 8f99 c3bc c50f 4dbd 5add 28be b5ed 32be
00000210: 131d c7bd 76c1 a2be 40fa 903e 607d d83d
00000220: e498 fc3d c54b 98bd f9d7 8cbc bdcf 753e
00000230: 709e 5abd 4828 6dbe 7210 8a3e 2843 63bd
00000240: bbea 8a3e 6e99 6dbe e259 33be 6130 bdbd
00000250: 9b2c 64be 8003 6cbd 6fd0 083e e342 5c3e
00000260: 7279 8bbe e0e1 79be 60f3 36be 03a1 0f3e
00000270: a353 383e df95 84bd a2be f8bc 802c 15be
00000280: 7efa 3e3e 3e3d 2e3c 6f1b 06be dcd9 94be
00000290: e38b 41bd 3f00 d5bd 3da8 583e 18a3 94be
000002a0: 075b 9b3e 4a9a b7bc 0e1d 9abe 3cb6 b53d
000002b0: 5ed8 5c3d 2ba4 693b 947b 043e 853d 633e
000002c0: ea82 903e 7369 be3d 89ae 423e 5fee 94be
000002d0: a9d8 96be aa13 69be 84cf 6abe 4c8c 793e
000002e0: d0d3 773e 8820 edbd d1ab f6bd 6819 e4bc
000002f0: 5f2b d53d 76f7 283c 3ba6 2a3e d211 66be
00000300: 6495 423e 7401 8fbd 4d29 723d 807a 62be
00000310: 54d5 413e 7f1e 8fbe 555a 2f3e ece3 64bd
00000320: 58fe 08be 381c 8f3e 43e7 ea3d 7408 c9bd
00000330: ce7b 73be fe8a 61be b153 c8bd 4c1d 5bbe
00000340: f890 b3bd 7e6b 90be 454a 86be 30be 38be
00000350: 2022 53be 693a e9bd 30f1 07bd f4ba 92bd
00000360: a29a 4cbe cab0 72be fd62 29be c1fc 93bd
00000370: 58e8 27bd 8216 4f3e b65d 92be d37d 8a3b
00000380: 0712 43be 2013 72be 928e c03d ff2e 463e
00000390: df9e 363e be22 76bd 0d25 5cbe 7a60 67be
000003a0: 43dd 413e b38d 20be 4682 013d 89b2 613e
000003b0: d20c 99be 3a3c f3bc 0bad 8c3e 9873 32bc
000003c0: 7169 1e3e 5c62 2bbe 84e0 553e 8c1c 193e
000003d0: 887f d73d d28f 9d3e b88a 1c3e 3954 993e
000003e0: 5a89 41bd a683 7cbd d006 ea3d d80f 923e
000003f0: e2c3 913e b1e0 40be ea40 823c f0d9 d5bd
-0.2952638 0.12670329 0.30773607 -0.16655752 0.08941547 -0.17295602 -0.17882518 -0.29444742
0.2907411 0.27799955 -0.020306727 0.014920472 0.14047232 -0.23107038 -0.0539978 0.19028237
-0.07927539 0.23549733 -0.16371219 0.10122118 -0.2470159 -0.071059056 -0.16304466 -0.025845272
-0.105459884 -0.09452015 0.21842782 -0.053973738 -0.017312197 -0.23149651 -0.1727459 -0.2357738
0.2828428 -0.12033591 0.27283975 0.2970216 0.014559036 -0.09004457 -0.2269397 -0.22514986
-0.23191535 -0.1789872 -0.0909436 -0.09230164 0.13234988 -0.2384492 0.036222074 0.27989715
-0.01083016 0.113559216 0.09284412 -0.2058593 0.05368205 -0.011810292 -0.18810546 -0.27206725
0.18315549 -0.18504842 0.032059614 -0.10004288 0.20494552 -0.035997458 -0.029599901 -0.20396408
-0.08315408 -0.096220836 -0.051170513 -0.16952422 -0.13560152 -0.2215922 0.101524405 0.25387594
-0.18244636 -0.12544128 -0.24518001 -0.01414258 -0.05731629 -0.0990055 -0.01623557 0.059037924
-0.041729745 -0.26343843 0.013649027 -0.19961861 0.13542035 0.209259 -0.29205322 -0.017946651
0.1314277 -0.19556108 0.20187353 0.22625203 -0.22824128 0.105306946 -0.028638268 0.2689652
-0.06635806 -0.10801526 -0.19279025 0.23779972 0.17740852 0.20678775 0.26477042 -0.27226508
0.23942173 -0.006642199 0.1430222 -0.1619781 -0.015970573 0.119298905 0.13287696 0.28481928
0.2993364 -0.19547734 0.046204712 0.059604216 -0.33343548 0.05261639 -0.022190403 0.089537725
-0.0772818 0.21177138 -0.12028014 -0.1156372 0.21563275 0.035307787 0.02275549 0.23612425
-0.023876933 -0.050063867 -0.16490689 -0.1747349 -0.09722342 -0.31788224 0.28315926 0.105707884
0.12333849 -0.07436327 -0.017192828 0.24005027 -0.053373754 -0.23159897 0.26965672 -0.055483967
0.2713221 -0.2320306 -0.17514756 -0.09237743 -0.2228264 -0.057620525 0.13360761 0.2150989
-0.27241093 -0.2440257 -0.17866278 0.14026265 0.18000655 -0.06473898 -0.030364338 -0.14567757
0.18650243 0.010634718 -0.13096403 -0.29072464 -0.047252547 -0.104004376 0.21157928 -0.2903068
0.30342886 -0.022412438 -0.30100292 0.08872649 0.05391728 0.003565083 0.12937766 0.22191437
0.2822488 0.092974566 0.19011892 -0.29088113 -0.29462174 -0.22761407 -0.22930723 0.24369925
0.24201894 -0.115784705 -0.1204449 -0.027844146 0.10408663 0.010312906 0.16664974 -0.22467735
0.190023 -0.06982699 0.05912142 -0.22117043 0.18929034 -0.27952954 0.17124303 -0.055881426
-0.13378274 0.27951217 0.11469891 -0.098160654 -0.23777696 -0.22025678 -0.09781588 -0.21397895
-0.08767885 -0.2820701 -0.26228538 -0.18041301 -0.20618486 -0.11388094 -0.033189 -0.07164565
-0.19980863 -0.23700252 -0.16541667 -0.07225943 -0.040993065 0.2022343 -0.2858712 0.004226425
-0.19049846 -0.23640108 0.09402193 0.19353865 0.17834042 -0.060091726 -0.21498509 -0.22595397
0.18932061 -0.15679054 0.03161838 0.22040762 -0.29892594 -0.029691804 0.2747577 -0.0108918175
0.1546991 -0.1673674 0.20886427 0.14952296 0.105223715 0.3077379 0.15287292 0.2994707
-0.04725013 -0.061648987 0.11427081 0.28527713 0.2846976 -0.18835713 0.015900094 -0.10441959

tokenizer.bool_embed.bias f4 [64]
00000000: d52f a7bd 75a2 0abe e0cf dc39 e3c1 9ebe
00000010: afef 893e 1b4e 6db9 be45 76be 4e13 673d
00000020: 48df 943e 77c7 7bbe d2c5 09bd ca05 b43d
00000030: d4b4 453e 934e 5a3e 0469 52be cc8e 2ebe
00000040: 43c9 03be 54a4 d73d d9a5 9b3e 4f3e 033d
00000050: b712 6abd 16e8 a43e 27d7 263e 8576 36be
00000060: d6cd d13c 779f 7a3e 8aa3 18be ea67 a2bd
00000070: 346f b2bd ed16 573c 3c53 883d d655 18bd
00000080: d742 8c3e dc5f 343e 0e07 3ebe 287c 9f3d
00000090: d807 77be 70bf 8b3a 46a4 7abe 5a93 81be
000000a0: 9ae2 4bbd 3201 743d d7d1 17bd 4af5 673e
000000b0: 3754 973e aa3b 5e3e 97b0 90bd 09ac 553d
000000c0: 5371 18be 544c 89bb e545 be3d 3691 7bbd
000000d0: 0581 bfbd cda2 99be a0c4 733e 6eec 67bd
000000e0: d167 62bd d504 973e 0974 69bd 3441 03bd
000000f0: 1869 ce3d c21d 303e 76cf b43d b56d 033d
-0.0816342 -0.13538535 0.0004211655 -0.310073 0.26940677 -0.00022631178 -0.24050042 0.056414895
0.290766 -0.24587809 -0.03363592 0.08790167 0.19307262 0.21319036 -0.20547873 -0.1704666
-0.12869744 0.1052939 0.3039997 0.032041844 -0.057146754 0.32208318 0.16293012 -0.17818649
0.025610846 0.24474894 -0.14906135 -0.07929976 -0.087126166 0.0131280245 0.06656501 -0.037191235
0.27394745 0.17614692 -0.18557379 0.07787353 -0.24124086 0.0010661911 -0.24476728 -0.25307733
-0.04977665 0.059571452 -0.037065353 0.22652164 0.29556438 0.21702448 -0.07064932 0.05216602
-0.1488698 -0.004190007 0.09290675 -0.06141778 -0.093507804 -0.3000702 0.23805475 -0.05662196
-0.05527479 0.29495874 -0.056995425 -0.032044604 0.10078639 0.17198852 0.088286325 0.032087047

encoder.layers.0.norm1.weight f4 [64]
00000000: dd1e 7b3f 8586 813f 6d46 7a3f b5d7 7d3f
00000010: b46a 7b3f a760 7c3f 1c1b 7c3f 2760 813f
00000020: 6552 7a3f 22d3 803f 0031 7c3f 9076 7f3f
00000030: 6612 7d3f 0e87 7c3f ace3 7e3f 2350 7e3f
00000040: f0c6 7a3f 703f 7a3f 2ef7 773f b71d 813f
00000050: e34f 7c3f b55c 7d3f 0df7 793f af56 7c3f
00000060: 8fb0 7b3f ee1d 793f 27cb 7c3f 0c1e 7c3f
00000070: dcce 7b3f 5317 7c3f 5a79 7b3f 90ae 7f3f
00000080: 3358 7d3f d63a 7b3f fde8 7b3f 5ff0 7b3f
00000090: 8509 7e3f e35f 7b3f 7601 7c3f b8a7 7b3f
000000a0: 3e83 7a3f 2572 7a3f c532 7b3f ad1b 7c3f
000000b0: cbf0 7c3f 24bc 803f a9f7 7b3f ce25 7d3f
000000c0: 9f1f 7c3f b687 7b3f 2bf8 7b3f d23a 7b3f
000000d0: 09d8 7b3f f22e 803f 60e7 7c3f 2902 793f
000000e0: 054b 7a3f b8cf 7b3f b912 7e3f 7a62 793f
000000f0: b466 7e3f ed08 7b3f 712d 783f 54bd 793f
0.9809397 1.0119177 0.9776371 0.9915727 0.9820969 0.9858498 0.98478866 1.0107468
0.97781974 1.0064433 0.9851227 0.99790287 0.988562 0.9864358 0.9956615 0.9934103
0.97959805 0.9775305 0.9686154 1.0087193 0.985594 0.98969585 0.97642595 0.9856977
0.9831628 0.97311294 0.98747486 0.9848335 0.9836252 0.9847309 0.9823204 0.99875736
0.98962706 0.9813665 0.98402387 0.9841365 0.99233276 0.98193187 0.9843973 0.98302794
0.9785651 0.9783042 0.98124343 0.9847973 0.9880492 1.0057416 0.98424774 0.9888581
0.9848575 0.98253953 0.9842555 0.9813663 0.9837652 1.0014327 0.9879055 0.9726892
0.9777072 0.9836383 0.9924732 0.9741589 0.9937546 0.98060495 0.9694434 0.97554517

encoder.layers.0.norm1.bias f4 [64]
00000000: 0193 2fbb 5e19 eb3a 49a2 603c ceac 01bc
00000010: 0647 813b c3f4 24bb ca53 2d3b 9f2a 7b3b
00000020: e572 3a3b 5851 1fba 1b96 273b f914 58bb
00000030: 3b23 273b d20b 57bc c000 1fbb 9d0e a7ba
00000040: 5487 0b3a 656f 173a b465 973b 7b8e 383b
00000050: a8ea 443b 6b49 1e39 83f5 64bb 800f f53a
00000060: a693 85bb bcfa c3ba 1c64 1e3c 3cd0 0d3c
00000070: 5551 43bc eaed 70bb 3bb8 57bb b02f 84bb
00000080: 7515 123b d115 38bb 5181 56bb e41d 9f3b
00000090: eece ffba d87d 8a3a 73d8 4cbc f64b ff3b
000000a0: 8f5d 86bb 4e3e 08bb 1dd5 343b 3755 2038
000000b0: fb86 4739 3d54 4aba 6f8f 493b 5fa8 88bb
000000c0: 546b 213b 28ac 273b 049d 3fba 06db e239
000000d0: 4d66 643b 3c90 aa3b 81ff fd3a 15dd 1a3b
000000e0: 755e 8aba 6c96 e5ba 58d5 893a bfd6 db3a
000000f0: c57b 8dbb 6d36 023c b68b 82bb 114a 7e37
-0.0026790502 0.0017936637 0.013710567 -0.007914735 0.003945234 -0.0025170303 0.0026447647 0.0038324965
0.002844983 -0.000607749 0.0025571648 -0.0032971485 0.0025503177 -0.013125377 -0.0024261922 -0.0012745444
0.00053225947 0.0005776792 0.0046202783 0.0028161097 0.0030047093 0.00015095405 -0.0034936375 0.0018696636
-0.004076439 -0.0014952044 0.009667423 0.008655604 -0.011921247 -0.0036762902 -0.0032916206 -0.004034005
0.0022290621 -0.0028089175 -0.0032730887 0.004855858 -0.0019516626 0.0010566069 -0.012502777 0.0077910377
-0.0041005085 -0.002078909 0.0027592846 3.8226335e-05 0.00019028403 -0.0007718241 0.003075566 -0.004170462
0.0024630623 0.002558479 -0.0007309469 0.00043269264 0.0034851015 0.0052051824 0.0019378514 0.002363031
-0.0010556715 -0.0017516143 0.0010515852 0.0016772373 -0.004317733 0.007947546 -0.00398394 1.5156825e-05
