models/ft_transformer_final.pth (torch, 567528 bytes, 65 tensors)

tokenizer.CLS f4 [1, 1, 64]
0	0xbf1f6b07	-0.62272686
1	0xbf9b752d	-1.2145134
2	0x3f1d08e5	0.61341697
3	0xbedbb844	-0.4291402
4	0x3e139a9a	0.14414445
5	0x3e7f4a26	0.24930629
6	0x3d1ac588	0.037786037
7	0xbe2a562b	-0.16634433
8	0x3ff302b8	1.8985205
9	0x3e5ae822	0.21377614
10	0xbe2a4062	-0.16626123
11	0xbf1afdbc	-0.6054342
12	0xbee36288	-0.4441111
13	0x3f2c1f6c	0.67235446
14	0x3fb028f6	1.37625
15	0x3f274245	0.65335494
16	0xbe277d12	-0.16356304
17	0x3f5569b5	0.8336442
18	0x3fc4e732	1.5383055
19	0x3d89c688	0.0672732
20	0xbdbac74c	-0.09120044
21	0xbe0b8721	-0.13625766
22	0xbfe8153d	-1.8131481
23	0x3f8d3a05	1.1033331
24	0x3f99570c	1.197969
25	0xbf119401	-0.5686646
26	0xbfaf4fd0	-1.3696232
27	0xbfb6f065	-1.4292113
28	0x3f678f5c	0.90453124
29	0xbf33ffe1	-0.70312315
30	0xbf767fe8	-0.9628892
31	0xbf886e6c	-1.0658698
32	0xbeee7fca	-0.4658187
33	0xbdc58c4c	-0.096459
34	0x3d0634d8	0.03276524
35	0x3dc157ea	0.094405964
36	0x3fde1a49	1.7351772
37	0xbf8cc2cc	-1.0996947
38	0xbe3183bf	-0.17335413
39	0x3fbb1a93	1.4617485
40	0xbe1fe440	-0.15614414
41	0xbdb019a1	-0.08598638
42	0xbf20bb5e	-0.627859
43	0x3ec92a28	0.39289975
44	0xbf7f9f5e	-0.9985255
45	0xbf7a7c7e	-0.9784621
46	0x3f350498	0.70710135
47	0x3fc590e6	1.5434844
48	0xbebd0e2a	-0.3692487
49	0x3f2116eb	0.62925595
50	0xc01b9ba7	-2.4313753
51	0x3f406618	0.7515578
52	0x3ef5bca5	0.47995487
53	0xbf3a2551	-0.7271319
54	0xbfc0f65c	-1.5075183
55	0x400e41fb	2.2227771
56	0xbe3dfb0e	-0.18552801
57	0x3ebaef03	0.36510476
58	0xbd5894e8	-0.052876383
59	0x3fafb4d4	1.3727059
60	0x3f804c0d	1.0023209
61	0xbf09b109	-0.5378576
62	0x3d372dd7	0.04472145
63	0x3eb3724c	0.3504814

tokenizer.num_embed_miss.weight f4 [64, 1]
0	0x3d9d205e	0.07672189
1	0xbf2c8ad8	-0.6739936
2	0x3ef4a394	0.4778105
3	0xbf2299d0	-0.6351595
4	0x3ee30915	0.44342867
5	0xbe49f9eb	-0.19724242
6	0x3f5ecc3a	0.87030375
7	0x3f5c0dbd	0.8595846
8	0x3f63d311	0.88993937
9	0xbd954cdf	-0.072900526
10	0xbf7637b7	-0.96178764
11	0x3f62bf45	0.88573104
12	0x3e865012	0.26232964
13	0xbf61fa44	-0.882725
14	0xbf26e890	-0.6519861
15	0xbf67bfe0	-0.90527153
16	0xbf33472d	-0.7003048
17	0x3f277cd8	0.6542487
18	0x3d7f8030	0.06237811
19	0xbf390da7	-0.72286457
20	0xbf64b5be	-0.89339817
21	0xbc32390f	-0.010877862
22	0xbf6a7b73	-0.9159462
23	0xbf126df0	-0.57199
24	0x3e925aa5	0.2858478
25	0xbf236adf	-0.6383495
26	0xbef91c6a	-0.4865449
27	0x3f34f686	0.70688665
28	0xbf7e642d	-0.99371606
29	0xbdff3b65	-0.124625005
30	0x3ea5b0c0	0.32361412
31	0x3edbe7c8	0.42950273
32	0x3ef28f1c	0.4737481
33	0x3ec807bd	0.39068404
34	0xbef9a789	-0.48760632
35	0xbf1e444f	-0.6182298
36	0x3f1ccbec	0.6124866
37	0xbe125d6f	-0.14293455
38	0x3f7451c9	0.95437294
39	0x3f6c12d0	0.92216206
40	0xbef32a4f	-0.47493216
41	0xbf50da65	-0.81583244
42	0xbccb6932	-0.024830434
43	0xbf325798	-0.6966491
44	0x3efde864	0.49591362
45	0xbf338e06	-0.70138586
46	0x3f1e7272	0.6189338
47	0xbf5281e5	-0.82229453
48	0x3f711be9	0.9418321
49	0x3e4e81f3	0.20166759
50	0xbd1d644a	-0.03842572
51	0xbf6e4541	-0.93074423
52	0xbe903279	-0.28163508
53	0xbee87be7	-0.4540703
54	0x3ef19ad5	0.4718844
55	0xbf3da741	-0.74083334
56	0xbe82e54c	-0.25565565
57	0x3cadb39d	0.02120381
58	0x3f2a9cf3	0.66645736
59	0xbe378bc6	-0.17924413
60	0x3ecf3ed9	0.40477636
61	0xbf09227f	-0.5356826
62	0x3f1cce8b	0.6125266
63	0x3f70abee	0.94012344

tokenizer.num_embed_miss.bias f4 [64]
0	0x3f7bc664	0.98349595
1	0x3efc711e	0.49305052
2	0x3e92ae51	0.28648618
3	0x3f076445	0.52887374
4	0xbf15d041	-0.58520895
5	0xbf3591ab	-0.70925397
6	0xbe157088	-0.14593709
7	0x3c6f8b82	0.014620664
8	0xbe97ba13	-0.2963415
9	0x3d042ee1	0.03227127
10	0x3f256428	0.6460595
11	0x3f7bc4af	0.9834699
12	0x3f04a715	0.51817447
13	0x3ed46826	0.4148571
14	0xbf28cc48	-0.6593671
15	0xbec10f4f	-0.37706992
16	0xbd65b01a	-0.056076147
17	0x3e7b25d7	0.24526154
18	0xbeb74344	-0.35793507
19	0xbd849069	-0.064728566
20	0xbd8fe966	-0.07026939
21	0x3f50536f	0.8137731
22	0xbefde799	-0.49590757
23	0x3f534fb2	0.8254348
24	0xbed199d9	-0.4093769
25	0xbf233396	-0.6375059
26	0x3ea72a11	0.32649282
27	0x3f1a42b7	0.6025805
28	0xbe7b69df	-0.24552105
29	0x3f11a263	0.5688841
30	0xbf04b3c5	-0.51836807
31	0xbf4350f8	-0.76295424
32	0x3ef62a4e	0.4807915
33	0xbee8a9ad	-0.45441952
34	0xbf2504b2	-0.6446029
35	0xbf0877c8	-0.5330777
36	0xbe5031c9	-0.20331492
37	0x3f5a13dd	0.8518656
38	0x3f4a2e6e	0.78977096
39	0xbf258bbe	-0.64666355
40	0xbf5bf9f8	-0.859283
41	0x3f21e877	0.6324534
42	0xbe9a1fbb	-0.30102333
43	0xbed9f110	-0.4256673
44	0x3eb693dd	0.35659686
45	0x3f691725	0.9105094
46	0xbee9336b	-0.4554704
47	0xbee960ec	-0.45581758
48	0x3ea5a9ca	0.323561
49	0xbf10f382	-0.56621563
50	0x3d18261d	0.037145723
51	0xbf5dd456	-0.86652124
52	0xbf32106c	-0.6955631
53	0xbf7e8906	-0.9942783
54	0xbedac2a1	-0.42726615
55	0xbf7bd00b	-0.98364323
56	0xbf2e1dcd	-0.6801422
57	0x3f7f28da	0.9967171
58	0xbecb34af	-0.39688632
59	0x3e8d294f	0.27570578
60	0xbf589ae3	-0.8461134
61	0xbf263921	-0.6493092
62	0xbea6767a	-0.32512265
63	0xbf54e6ac	-0.8316448

tokenizer.num_embed_pc.weight f4 [64, 1]
0	0x3f523974	0.82118917
1	0xbed11b02	-0.40840918
2	0x3f594df5	0.8488458
3	0x3e37325d	0.17890306
4	0x3d4d09e4	0.05005826
5	0xbe6e20b0	-0.23254657
6	0x3ed0214c	0.40650403
7	0x3ed9bbe6	0.42526168
8	0xbecd1d90	-0.40061617
9	0x3d031963	0.032006633
10	0xbde08f81	-0.10964871
11	0xbd842879	-0.06453032
12	0x3f1ff42a	0.6248194
13	0x3f207cca	0.62690413
14	0xbe19ad0e	-0.15007421
15	0x3e58061a	0.21096078
16	0x3f269215	0.65066653
17	0xbecb2ab9	-0.39681032
18	0xbe2ef897	-0.17087017
19	0xbf7c037a	-0.98442805
20	0xbf7282f8	-0.9473109
21	0x3f65792d	0.89638025
22	0x3f131f47	0.574696
23	0xbf27715b	-0.6540734
24	0xbf7b8742	-0.9825326
25	0x3d5966a2	0.053076394
26	0xbf11159a	-0.56673586
27	0xbefa0e18	-0.48838878
28	0xbf5791fb	-0.84207124
29	0x3e8ef18d	0.27918664
30	0xbf0737c2	-0.52819455
31	0x3f6f6773	0.93517226
32	0xbda6dc81	-0.081475265
33	0xbd0b05c1	-0.033941034
34	0xbf3d5587	-0.7395863
35	0xbef251a2	-0.47327906
36	0x3f1350df	0.57545274
37	0xbf4c9a4b	-0.7992293
38	0x3ecfc5b6	0.4058053
39	0x3f37b171	0.7175513
40	0x3f72b3d3	0.9480564
41	0x3d98f4ea	0.07468589
42	0xbea9cdec	-0.33164918
43	0xbe8fd12f	-0.28089282
44	0x3ec525a5	0.38505283
45	0x3f5c6a9d	0.8610018
46	0x3f26a2ce	0.6509217
47	0x3eca9a90	0.39571047
48	0xbf789c9b	-0.9711396
49	0xbf425d85	-0.7592395
50	0xbf5595da	-0.8343178
51	0xbf3d5de5	-0.73971397
52	0x3ef13533	0.471109
53	0x3eb41ffe	0.35180658
54	0x3f6ee8d8	0.9332404
55	0x3ebe8879	0.37213495
56	0x3f3f0e1a	0.7463089
57	0x3f50fd05	0.8163608
58	0x3f452e72	0.77023995
59	0x3d7a1372	0.0610537
60	0x3f7fc4dc	0.9990976
61	0x3f4189b9	0.75600773
62	0xbe635933	-0.22201996
63	0x3e97400f	0.2954106

tokenizer.num_embed_pc.bias f4 [64]
0	0xbf3ce037	-0.73779625
1	0x3ebe3777	0.3715169
2	0x3f2b3f16	0.66893137
3	0xbf3f0df3	-0.7463066
4	0xbe26dd2c	-0.16295308
5	0x3f62a21d	0.88528615
6	0xbf0ded68	-0.5544038
7	0x3f5bf236	0.8591646
8	0xbef4a7b4	-0.47784197
9	0x3f13522b	0.57547253
10	0x3f7fc876	0.99915254
11	0x3ed4e1d7	0.41578552
12	0x3f055a2e	0.5209073
13	0xbf50e488	-0.8159871
14	0x3d7eb7dd	0.062187064
15	0xbf011f78	-0.5043864
16	0x3f79baf1	0.97550875
17	0xbeb7f3e2	-0.35928255
18	0x3ef48680	0.47758865
19	0x3ea5979b	0.32342228
20	0x3f037e2e	0.5136441
21	0x3e445eb4	0.19176751
22	0x3f0a44c3	0.5401117
23	0x3eb6b51b	0.35685048
24	0x3f00fa22	0.5038167
25	0x3ead3423	0.3382884
26	0x3e82f010	0.25573778
27	0xbe92bd7b	-0.28660187
28	0x3dfd9bb0	0.12383211
29	0x3f6519c0	0.89492416
30	0xbd805386	-0.06265931
31	0x3ee1899b	0.44050297
32	0x3eb68c53	0.35653934
33	0x3e8568b2	0.2605644
34	0xbf60b921	-0.87782484
35	0x3f1cb505	0.61213714
36	0x3efce033	0.493898
37	0x3f304fb7	0.68871635
38	0x3eb212bb	0.34779915
39	0xbf0accae	-0.54218566
40	0xbed2a52d	-0.41141644
41	0x3e976504	0.29569256
42	0x3dea3571	0.114359744
43	0xbe1753c2	-0.14778045
44	0xbe1223ea	-0.14271513
45	0xbeede4a2	-0.46463495
46	0x3ed3a7ac	0.4133886
47	0x3f7553ae	0.9583081
48	0x3f5d9cf6	0.8656763
49	0xbf5fc7e4	-0.87414384
50	0x3ecfedd2	0.4061113
51	0x3e30d510	0.17268777
52	0xbea59f83	-0.3234826
53	0x3f5e128a	0.8674704
54	0xbec41f10	-0.3830495
55	0xbf539d69	-0.82662064
56	0x3e328c01	0.1743622
57	0x3e3b9854	0.18319827
58	0xbf00b259	-0.50272137
59	0xbdcd254a	-0.10016878
60	0x3ddf375d	0.108992316
61	0x3f10855f	0.5645351
62	0xbf70686d	-0.9390934
63	0xbf2f10cb	-0.68385

tokenizer.num_embed_hours.weight f4 [64, 1]
0	0xbe9b6073	-0.30347022
1	0x3f3726c3	0.7154352
2	0x3f1913a4	0.59795594
3	0xbe8e50a6	-0.27795905
4	0x3f33f740	0.7029915
5	0x3eee895a	0.46589166
6	0x3dd2d5c1	0.102946766
7	0xbc55e4f8	-0.013055079
8	0xbeb0cdce	-0.34532017
9	0x3f55ba6f	0.834876
10	0xbec7d954	-0.39032996
11	0x3f54398d	0.82900316
12	0xbf49e1f1	-0.78860384
13	0xbee9f506	-0.4569475
14	0xbf5c7c83	-0.8612749
15	0x3f28a285	0.65872985
16	0x3dfa6e0f	0.12228023
17	0xbeffe786	-0.49981326
18	0xbd6932a4	-0.05693306
19	0x3f22e1bf	0.6362571
20	0xbf462724	-0.77403474
21	0xbe575fb5	-0.21032603
22	0x3f17d45c	0.5930841
23	0xbf7a73c6	-0.97832906
24	0x3eeda90d	0.46418038
25	0xbef86de0	-0.48521328
26	0xbe53b293	-0.2067359
27	0x3e6c0449	0.2304851
28	0xbf78126b	-0.96903104
29	0x3df64463	0.120247625
30	0x3ec48b36	0.3838746
31	0x3f2ec38c	0.6826713
32	0x3e42c973	0.1902216
33	0xbeac0c52	-0.3360315
34	0x3f0359b5	0.5130876
35	0xbeb4d702	-0.35320288
36	0xbf24158c	-0.6409538
37	0x3ed5096f	0.4160876
38	0xbf491c1d	-0.7855852
39	0x3f0e6bf3	0.5563347
40	0xbf4d5f9d	-0.8022402
41	0xbe93d741	-0.28875163
42	0xbea8de46	-0.3298208
43	0xbf025d62	-0.5092374
44	0xbe320b40	-0.17387104
45	0xbeacb0bd	-0.3372859
46	0x3e2b1838	0.16708457
47	0x3e0447f2	0.1291807
48	0xbf7ea6b4	-0.9947312
49	0xbeb9814b	-0.36231455
50	0x3f3cbfba	0.7373005
51	0x3e17ad5b	0.14812224
52	0x3e966c82	0.2937966
53	0x3e448c35	0.1919411
54	0xbf631023	-0.886965
55	0x3e1e3edc	0.15453666
56	0xbefce999	-0.4939697
57	0xbe43e976	-0.19132027
58	0x3ef6ef9f	0.4822969
59	0xbf51d4fb	-0.8196561
60	0x3e830c8d	0.25595513
61	0x3f7c7041	0.98608786
62	0xbf414e74	-0.75510335
63	0xbd4ce004	-0.050018325

tokenizer.num_embed_hours.bias f4 [64]
0	0xbf432b09	-0.7623754
1	0x3f53a51d	0.8267382
2	0x3ea1df62	0.3161574
3	0x3f1ce0b7	0.6128039
4	0xbf07ff09	-0.5312353
5	0xbf5ce07d	-0.8628004
6	0xbec39a99	-0.38203886
7	0xbf33f569	-0.7029634
8	0x3ec795ce	0.3898148
9	0xbf73a448	-0.9517255
10	0xbf7819b0	-0.96914196
11	0x3eb87134	0.36023867
12	0xbeafca60	-0.34334087
13	0x3f7c68ab	0.9859721
14	0xbea02029	-0.31274536
15	0xbe4a6403	-0.19764714
16	0xbf788704	-0.9708102
17	0xbdc0870e	-0.0940076
18	0xbcf7a962	-0.030232135
19	0x3f2e5232	0.6809417
20	0xbf129037	-0.57251304
21	0xbed9e553	-0.42557773
22	0xbe8de15a	-0.27710992
23	0x3e8cdc16	0.27511662
24	0xbe2de511	-0.16981913
25	0xbec5c65b	-0.38627896
26	0x3db79f79	0.08965964
27	0xbf5dbb1b	-0.86613625
28	0xbe003f38	-0.12524116
29	0xbf78f4cd	-0.97248536
30	0x3e3a7769	0.18209614
31	0xbe4ef58e	-0.20210859
32	0x3f2dbe32	0.6786834
33	0xbf1683aa	-0.58794653
34	0x3f45f963	0.7733366
35	0x3ed1b633	0.4095932
36	0xbb5a4858	-0.003330728
37	0xbf771ca0	-0.96528053
38	0xbf587c86	-0.8456501
39	0x3f2a362e	0.6648892
40	0x3eadf9df	0.339797
41	0x3de5ed93	0.11226954
42	0x3e3892f8	0.18024814
43	0xbf713507	-0.9422154
44	0x3ed5e3de	0.4177541
45	0x3f12f148	0.57399416
46	0xbea4f9ef	-0.32221934
47	0x3f780f95	0.96898776
48	0x3f3f27d4	0.7467015
49	0x3e2d7744	0.16940027
50	0xbeb4356e	-0.35197014
51	0xbee03a7f	-0.4379463
52	0xbe9a5070	-0.30139494
53	0x3f1d9d6a	0.6156832
54	0xbf289b60	-0.65862083
55	0xbe17e916	-0.14835009
56	0x3f2486c0	0.6426811
57	0x3f043627	0.5164513
58	0x3e9f9369	0.31167153
59	0xbc8efc6d	-0.01745435
60	0xbec05899	-0.37567595
61	0x3e34a5dd	0.17641397
62	0x3dc6c5aa	0.0970567
63	0x3e1db6ee	0.15401813

tokenizer.cat_embed_sat1.weight f4 [2, 64]
0	0x3de75840	0.11296129
1	0x3eb6eaf3	0.35726127
2	0xbf2b4962	-0.6690885
3	0xbf50edb2	-0.81612694
4	0x3fe8db01	1.8191835
5	0xbf94d3da	-1.1627152
6	0x3f55cdb3	0.83517
7	0xc0406bf7	-3.0065897
8	0x3f247685	0.64243346
9	0xbf3cca12	-0.73745835
10	0xbeb735c2	-0.357832
11	0x3ef7ae57	0.48375198
12	0xc004c632	-2.074597
13	0xbe2f415f	-0.17114781
14	0x3ecbadbb	0.39780983
15	0xbf085b4a	-0.53264296
16	0x3e985804	0.2975465
17	0x3f2d0618	0.67587423
18	0xbfa9a954	-1.32548
19	0x3f9a22e0	1.2041893
20	0x3e2ce7d9	0.16885318
21	0xbf26a169	-0.6509004
22	0x3e581470	0.21101546
23	0xbe87573a	-0.26433736
24	0x3f82cb72	1.0218337
25	0x3d4b0d44	0.049573198
26	0x3fbd8238	1.4805365
27	0xbfcde3f0	-1.6085186
28	0xbf91ae85	-1.1381384
29	0x3d1c786b	0.038200777
30	0xbf245179	-0.6418682
31	0xbf9f16b1	-1.24288
32	0xc021cfaf	-2.528301
33	0x3e99540c	0.29946935
34	0xbf985c23	-1.1903118
35	0xbecf92c0	-0.4054165
36	0x3f33839c	0.70122695
37	0x3f1fd619	0.6243606
38	0x3f1bd93e	0.6087836
39	0xbf256b85	-0.64617187
40	0x40047e90	2.0702248
41	0x3f665f29	0.8998895
42	0x3f7957ba	0.97399485
43	0xbf884914	-1.0647302
44	0x3f56a31f	0.83842653
45	0x3f83a5c3	1.0284961
46	0xbf28893a	-0.6583439
47	0x3fa86882	1.3156893
48	0xbeb1399b	-0.34614262
49	0xbf77748a	-0.966622
50	0x3f6d297a	0.92641413
51	0x3fd3dea3	1.6552318
52	0x3e238969	0.15970387
53	0x3ed428e0	0.41437435
54	0x3f898eca	1.0746701
55	0xbf909c3c	-1.1297679
56	0x3f98e0f8	1.1943655
57	0xbed97933	-0.4247528
58	0x3eabffab	0.33593497
59	0xbdf9c083	-0.12194922
60	0x3e2f11d3	0.17096643
61	0x3ef1471b	0.47124562
62	0xbf6bed14	-0.9215863
63	0xbd3515b8	-0.044210166
64	0x3f04b37a	0.5183636
65	0x3f7a8f4d	0.9787491
66	0x3f6bd730	0.92125225
67	0xbe992d52	-0.2991739
68	0xbeb5e55a	-0.35526544
69	0xbfa3d756	-1.280009
70	0x3e587fd9	0.2114252
71	0xbeb52fbc	-0.3538798
72	0xbe9c7dc5	-0.30564705
73	0x3f15da4f	0.5853624
74	0x3f337065	0.70093375
75	0xbbd1ee76	-0.0064066006
76	0x3fa8ff26	1.3202865
77	0xbf4cd195	-0.80007297
78	0xbe92fd59	-0.28708914
79	0x3c9284fd	0.01788568
80	0x3f5c588a	0.860726
81	0xbf89efb2	-1.0776274
82	0x3fd80ac6	1.6878288
83	0xbefa9e8b	-0.48949084
84	0x3f49f3d4	0.7888768
85	0x3d794cc8	0.06086424
86	0xbf09b88d	-0.5379723
87	0xbeae8ff0	-0.3409419
88	0x3f7d7ae2	0.9901563
89	0x4001a8c8	2.0259266
90	0x3fb15a4a	1.3855679
91	0xbf7dba3b	-0.9911229
92	0xbee7765e	-0.45207494
93	0xbff80c74	-1.93788
94	0x3eba7b12	0.3642202
95	0xbc4d506c	-0.012531381
96	0x3f76a61a	0.963472
97	0xbf97593c	-1.1824107
98	0x3ee56e3f	0.44810674
99	0xbece1e9e	-0.40257734
100	0x3db8255a	0.08991499
101	0x3fa312bf	1.2740096
102	0x3f885d8c	1.0653548
103	0x3f768c14	0.9630749
104	0xbe9c0eb7	-0.30479977
105	0xbec2cda0	-0.38047504
106	0xbf3e7afd	-0.74406415
107	0x3f203f29	0.62596375
108	0x3faca494	1.3487725
109	0x3fa96a83	1.323563
110	0x3ef78fb2	0.48351818
111	0x3fd0d53a	1.6315072
112	0x3df1831e	0.11792587
113	0x3eb4f25d	0.35341159
114	0xc0206f92	-2.5068097
115	0x3f23b2e1	0.6394482
116	0xbf821c0d	-1.016481
117	0xc014e49d	-2.3264534
118	0xbe1e5f10	-0.15465951
119	0x3f7c7721	0.98619276
120	0xbfd969b7	-1.6985387
121	0x3fe1f29c	1.7652164
122	0xbfba4720	-1.4552956
123	0x3ed73760	0.42034435
124	0x3c46131e	0.012089519
125	0x3e50a569	0.20375599
126	0xbf3b0492	-0.7305385
127	0xbec0c195	-0.3764769

tokenizer.cat_embed_sat2.weight f4 [1, 64]
0	0xbe9d95d5	-0.30778375
1	0xbf872c7c	-1.056045
2	0xbe3a24bc	-0.18178076
3	0xbec6144d	-0.38687363
4	0xbcb952dd	-0.02262252
5	0x3f7f78ad	0.9979351
6	0xbeceeb49	-0.40413883
7	0x3f3bcdd7	0.7336096
8	0x3dfb471a	0.12269421
9	0x3f80ddcb	1.0067686
10	0xbe0250f8	-0.127262
11	0x3ff778b7	1.9333714
12	0xbe15d63b	-0.14632504
13	0xbeadb417	-0.3392646
14	0xbd1b82c9	-0.037966523
15	0x3df663ff	0.120307915
16	0x3f8debf4	1.1087632
17	0xbefa583d	-0.48895445
18	0xbfb2303f	-1.3920974
19	0x3f1abfc2	0.6044885
20	0x3f62b6d6	0.88560236
21	0x3f7e220c	0.992707
22	0x3fa9be20	1.3261147
23	0x3fb26a0b	1.3938612
24	0x3f0d6638	0.552341
25	0xbe0de982	-0.13858607
26	0x40488eb5	3.1337101
27	0xbf494c5f	-0.7863216
28	0xbf6ab18e	-0.91677177
29	0x3f8e9a1b	1.1140779
30	0xbf3f356b	-0.74690884
31	0xbf97c7ed	-1.1857888
32	0xbfc704a7	-1.5548295
33	0x3fb4e8d1	1.413355
34	0x3f531411	0.82452494
35	0x3f8e1118	1.1098967
36	0x3f5ec016	0.8701185
37	0x3ea72098	0.32642055
38	0xbe962a77	-0.29329273
39	0xbe2cdcfc	-0.16881174
40	0x3d2a03a1	0.041507367
41	0xbf8f6f40	-1.1205826
42	0xbf0a1983	-0.5394518
43	0xbd671f6f	-0.05642646
44	0x3f8b7cf3	1.0897506
45	0xbf42fc50	-0.7616625
46	0xbfdf726a	-1.7456791
47	0xbeff9e5c	-0.49925506
48	0x3f29163c	0.6604955
49	0xbfa9f56c	-1.3278022
50	0x3e93023e	0.28712648
51	0xbf879704	-1.0592961
52	0xc01408d9	-2.31304
53	0xbc60d059	-0.013721549
54	0xbea9f8fc	-0.33197773
55	0xc0042dcb	-2.065295
56	0xbfe9fd41	-1.8280412
57	0xbf1377f8	-0.5760493
58	0x3d265456	0.040607773
59	0xbf0e07ef	-0.55480856
60	0x3e201d45	0.15636165
61	0xc03c4e9b	-2.9422977
62	0xbf59de7a	-0.851051
63	0xbf44a785	-0.76818115

tokenizer.cat_embed_obj1.weight f4 [1, 64]
0	0xbed9af5d	-0.42516604
1	0x3f17723e	0.59158695
2	0xbebfd7cc	-0.37469327
3	0x3f5d2348	0.8638196
4	0x3c080e0f	0.008304133
5	0xbf5e485d	-0.8682917
6	0xbf970044	-1.1796956
7	0xbf411819	-0.75427395
8	0xbf3fe0d0	-0.7495241
9	0x3e87850f	0.26468703
10	0x3f1e3272	0.61795723
11	0x3f88be47	1.0683068
12	0xc031bc73	-2.777127
13	0x3f9c9e4e	1.2235811
14	0xbfc11c51	-1.5086766
15	0x3faee8c4	1.3664784
16	0xbfa3a547	-1.2784814
17	0x3d0dde51	0.034635846
18	0x3fa5811b	1.2930025
19	0xbe05637d	-0.13026233
20	0xbe8726a8	-0.2639668
21	0x3e978eb7	0.2960107
22	0xbf534142	-0.8252145
23	0xbed7f1e6	-0.4217674
24	0xbfa300cc	-1.2734618
25	0x3f999546	1.199868
26	0x3e815a2e	0.25264114
27	0xbe028938	-0.12747657
28	0x3f9b25dc	1.2120929
29	0xbf454b73	-0.7706825
30	0x3f19702d	0.5993679
31	0xbf41fba0	-0.75774574
32	0x3f3d3e1e	0.7392291
33	0xbf15fdea	-0.5859057
34	0x3f8ae807	1.0852059
35	0xbe462bb2	-0.19352606
36	0xbf10a229	-0.56497437
37	0xbf1ce5b8	-0.61288023
38	0xbfcf3ad4	-1.6189828
39	0x3f0b74e6	0.5447525
40	0x3f1bb6ec	0.6082599
41	0x3f20bfbd	0.6279257
42	0x3e5de36d	0.21668787
43	0xbf746b9f	-0.95476717
44	0x3e74f782	0.23922542
45	0xbf8b8ff0	-1.0903301
46	0x401b36a6	2.4252105
47	0xbe8018d5	-0.25018945
48	0x3ec93d06	0.3930437
49	0xbef27492	-0.4735456
50	0xbf920a9e	-1.140949
51	0x3fc52c4b	1.5404142
52	0xbf15c8b5	-0.5850938
53	0x3e28d617	0.16487919
54	0x3e5e85f7	0.21730791
55	0x3f09eb6e	0.5387486
56	0x3f998900	1.1994934
57	0x404d0d01	3.2039187
58	0xbe900346	-0.28127497
59	0xbf664b2c	-0.89958453
60	0x3e6b039c	0.22950596
61	0xbf8cf888	-1.1013346
62	0xbf96c84e	-1.1779878
63	0xbf9eacd8	-1.2396498

tokenizer.cat_embed_obj2.weight f4 [2, 64]
0	0xbe99b85c	-0.30023468
1	0x3ecceb96	0.40023488
2	0x3f4ff6ca	0.81235945
3	0x3f574dc6	0.8410305
4	0xbc5ca77f	-0.013467669
5	0x3ecd47ac	0.40093744
6	0x40012a53	2.0182083
7	0x3f954495	1.1661555
8	0xbe9b6b5d	-0.3035535
9	0xbe2dcfd3	-0.1697381
10	0xbf3b2842	-0.73108304
11	0xbf82e98b	-1.0227522
12	0xbf8cc37a	-1.0997155
13	0xbfea8244	-1.8321004
14	0xbe27ed44	-0.16399103
15	0x3f85a750	1.0441685
16	0xbfa55518	-1.2916594
17	0xbffc35ef	-1.9703959
18	0xbd3f0f91	-0.046645705
19	0x3e6383b8	0.22218215
20	0xbebd07d1	-0.36920026
21	0xbf276d7d	-0.6540144
22	0xbee88881	-0.45416644
23	0x3fa10586	1.2579811
24	0x3ea2bd00	0.3178482
25	0x3f9e63b9	1.2374183
26	0x3f5ad936	0.8548769
27	0x3dfe1dd7	0.12408035
28	0xbf5e0b13	-0.8673565
29	0xbf5d3b7c	-0.8641889
30	0xbe485a60	-0.19565725
31	0x3ed2ceb6	0.41173333
32	0xbeecdb13	-0.4626089
33	0x3e818004	0.2529298
34	0xbf1e596f	-0.61855215
35	0x3e697483	0.22798352
36	0x3e78dcbe	0.24302956
37	0x3efc22c8	0.49245286
38	0xbf73788b	-0.9510581
39	0x3e811897	0.25214073
40	0x3f28a29e	0.65873134
41	0x3f91c8da	1.138942
42	0x3fa0f695	1.2575251
43	0x3f77265c	0.96542907
44	0x3f7178b0	0.9432478
45	0xbf309965	-0.6898406
46	0xbec71d25	-0.38889423
47	0xbf76cdf1	-0.9640799
48	0x3d9e595c	0.07731888
49	0x3f5c28ce	0.85999763
50	0x3f686b64	0.90788865
51	0x3f1cea71	0.6129523
52	0xc01c9c52	-2.447041
53	0xbf275ad0	-0.65372944
54	0x3f704532	0.93855584
55	0x3f954416	1.1661403
56	0x402f885d	2.742698
57	0xbf0234da	-0.50861895
58	0x3fad4339	1.353614
59	0xbf12bfb4	-0.57323766
60	0x3ec50443	0.38479814
61	0xbf4427bd	-0.76623136
62	0xbf1bbc80	-0.60834503
63	0x3ec39bf9	0.38204935
64	0x3eca3e2b	0.39500555
65	0x3f442da0	0.7663212
66	0xc000ab45	-2.0104535
67	0xbf095c2a	-0.53656256
68	0x3db2c807	0.087295584
69	0x3e530e04	0.20610815
70	0xbfa04fa5	-1.2524306
71	0x3f52952e	0.8225888
72	0x3f531847	0.8245892
73	0xbebffe96	-0.3749892
74	0xc00844d6	-2.1292014
75	0xbfd6ce72	-1.6781752
76	0xbf654432	-0.8955718
77	0xbf80e8ae	-1.0071008
78	0x3f639b8d	0.88909227
79	0x3e7cc052	0.2468274
80	0x3fac0e8e	1.3441942
81	0xbfc4f74f	-1.5387973
82	0xbf83416f	-1.0254344
83	0xbf109d3f	-0.5648994
84	0xbd4f30b6	-0.050583564
85	0x3f2bf5d1	0.6717196
86	0x3e603e84	0.21898848
87	0xbf762e1b	-0.961641
88	0x3d5c5e2b	0.053800743
89	0xbd29ec22	-0.04148496
90	0x3f93321e	1.149967
91	0x3ffed650	1.9909153
92	0xbfb46f2f	-1.409643
93	0xbf1f1f9c	-0.6215761
94	0x3ea57623	0.32316694
95	0xbf5e3dc4	-0.86812997
96	0x3f84a1a2	1.0361826
97	0x3fbaf033	1.4604553
98	0x3f9965f3	1.1984237
99	0x3fe71fd1	1.8056585
100	0xbe5eabab	-0.21745174
101	0x3f0e37a9	0.5555368
102	0xbf76df2a	-0.9643427
103	0x3fb919d2	1.4461005
104	0xbf593b5a	-0.8485619
105	0x3fa8952b	1.3170522
106	0xbe8adc71	-0.27121308
107	0x3fafb732	1.3727782
108	0xbe89c377	-0.2690694
109	0x3f31259a	0.69198
110	0x3f092c29	0.5358301
111	0x3fcf13e7	1.6177949
112	0xbf50ef4f	-0.81615156
113	0xbfca4b15	-1.5804163
114	0xbf14fa18	-0.5819411
115	0x3ef300aa	0.47461444
116	0xbfba371d	-1.4548069
117	0xbf32f5c3	-0.6990625
118	0x3cdf4606	0.02725507
119	0xbfbe587b	-1.4870752
120	0x3f1d51f6	0.6145319
121	0x3db5f34f	0.08884298
122	0x3f9e4f6c	1.2367988
123	0xbee409cc	-0.44538724
124	0xbf63ecae	-0.8903302
125	0xbf5b5b60	-0.856863
126	0xbf87e3b0	-1.061636
127	0xbea2713f	-0.31727025

tokenizer.cat_embed_org1.weight f4 [2, 64]
0	0xbfe08c13	-1.7542747
1	0xbf943fb4	-1.1581941
2	0xbf436863	-0.76331156
3	0x3ed5a4d2	0.4172731
4	0xbf5426ee	-0.828719
5	0x3ba3b208	0.004995588
6	0xbe918670	-0.2842288
7	0x3f8c5165	1.096234
8	0xbda22995	-0.079180874
9	0x3e6a7b2b	0.22898547
10	0x3f69efb2	0.9138137
11	0xbf34d7bc	-0.70641685
12	0x3d99cceb	0.07509788
13	0x4009f839	2.1557753
14	0x3d08bb23	0.033381592
15	0xbebaf205	-0.3651277
16	0x3f9e1c13	1.2352318
17	0xbf844be0	-1.0335655
18	0xbf1eefa4	-0.6208441
19	0xbf01fd3d	-0.50777036
20	0x3fd15975	1.6355425
21	0xbec3cbf1	-0.38241532
22	0x3ef7f7f7	0.4843137
23	0xbfa0b6b6	-1.2555759
24	0xbed56c07	-0.4168398
25	0x3f1d0e3d	0.6134985
26	0xbf805683	-1.0026401
27	0xbf122403	-0.570862
28	0x3e233a52	0.15940216
29	0x3e962fc0	0.29333305
30	0x3ff3a082	1.9033358
31	0xbe283855	-0.16427739
32	0x3fcc13c8	1.5943537
33	0xbe8c192b	-0.27362952
34	0x3e1544bf	0.14577006
35	0x3e757e8d	0.23974057
36	0x3fdbe728	1.7179918
37	0x3f553b11	0.83293253
38	0xbef54080	-0.47900772
39	0x3d52e114	0.051484182
40	0xbeabaf49	-0.3353217
41	0xbfc5902d	-1.5434624
42	0xbecf5c23	-0.40499982
43	0xbec6115c	-0.3868512
44	0x3ec807b4	0.39068377
45	0x3fc199bd	1.5125042
46	0xbe15bedf	-0.14623593
47	0xbe35bd8b	-0.17748086
48	0x3f1e8dea	0.61935294
49	0xbfcf11d6	-1.6177318
50	0xbe5be163	-0.21472697
51	0xbf505b51	-0.8138934
52	0x3f858678	1.0431662
53	0xbea80a18	-0.328202
54	0x3fa990d7	1.3247327
55	0xbf29144c	-0.66046596
56	0x3f9c069b	1.2189516
57	0xbf2f2d33	-0.68428344
58	0x3ecb35f6	0.39689606
59	0xbf1a6728	-0.60313654
60	0x3f178156	0.59181726
61	0xbfb3cebb	-1.4047464
62	0x3f9ae698	1.2101622
63	0x3f59e8a8	0.8512063
64	0x3feeff5c	1.867168
65	0xbf83c4bf	-1.0294417
66	0xc00c15f3	-2.1888397
67	0xbfd46be1	-1.6595422
68	0xbddcb7ce	-0.107772455
69	0x3fb905c3	1.4454883
70	0xbf93db88	-1.1551371
71	0xbfc48f30	-1.5356197
72	0xbf1b015d	-0.60548955
73	0xbfe1a190	-1.762743
74	0x40233f17	2.5507257
75	0x3e6fc131	0.2341354
76	0x3c868b46	0.016423833
77	0x3f6c24c7	0.9224362
78	0xbf12b2f0	-0.57304287
79	0x3e9e2d56	0.30893964
80	0xbf743772	-0.953971
81	0x3f8f903b	1.1215891
82	0x3f7fc9c3	0.9991724
83	0xbf731974	-0.94960713
84	0x3fc428c9	1.5324947
85	0xbf271506	-0.65266454
86	0x3ee04d46	0.43808955
87	0x3fc12f60	1.5092583
88	0x3f853038	1.040534
89	0x3ebe946c	0.37222612
90	0x3e3293d2	0.17439201
91	0x40491eb3	3.1424987
92	0xbee1cdd8	-0.4410236
93	0x3f82673d	1.0187756
94	0x3f0d55c5	0.55209
95	0x3f4af7cc	0.7928436
96	0x3e453640	0.19258976
97	0xbf17fda4	-0.593714
98	0x3fc20b3d	1.515968
99	0xbe211293	-0.15729742
100	0xbf4ab884	-0.791878
101	0xbf896769	-1.0734683
102	0xbf8fe911	-1.1243001
103	0x3d836e80	0.064175606
104	0x3e18feb8	0.14940917
105	0x3f18119b	0.59401864
106	0x3fc25b85	1.518418
107	0x3f3e7e83	0.7441179
108	0xbe3cec55	-0.18449529
109	0x3ed52534	0.41629946
110	0x3ee23028	0.44177365
111	0xbee396eb	-0.4445108
112	0x3f19acc6	0.60029256
113	0x3ec11fd0	0.37719584
114	0x3f2ce046	0.67529714
115	0xbfe12f9f	-1.7592658
116	0xbf79ecf2	-0.97627175
117	0x3f496b39	0.78679234
118	0x3f7e10d0	0.99244404
119	0x3fd85f60	1.6904106
120	0x3f88ccd7	1.0687512
121	0xbfc247a6	-1.5178115
122	0xbebfb3ce	-0.37441868
123	0xbf102966	-0.5631317
124	0x3f8784f7	1.0587453
125	0xbeb826a6	-0.35966986
126	0xbf575678	-0.84116316
127	0xbf6b2732	-0.9185668

tokenizer.cat_embed_org2.weight f4 [1, 64]
0	0x3db3313d	0.08749626
1	0xbf9f7979	-1.2458946
2	0x3f5acb07	0.85466045
3	0x4005f1bd	2.0928795
4	0xbeebbf33	-0.4604431
5	0xc001e588	-2.0296345
6	0x3fb6fb4b	1.4295439
7	0xbf7aa593	-0.97908896
8	0xbf1f0d91	-0.62130076
9	0x3e6384a3	0.22218566
10	0xbe4c4f5c	-0.19952148
11	0x3fbc7676	1.4723651
12	0xbe447f92	-0.19189289
13	0xbf4f8bb1	-0.8107253
14	0xbe9aa4ec	-0.3020395
15	0xbf3f0c2e	-0.7462796
16	0xbf2e4e27	-0.68088
17	0x3fc06a45	1.5032431
18	0xbef47213	-0.47743282
19	0x3fd0f9a1	1.6326181
20	0xbd34d4fe	-0.044148438
21	0x3faa8fc5	1.3325125
22	0x3d473ced	0.048642088
23	0xbf45b32e	-0.7722653
24	0xbe9da1cd	-0.30787507
25	0xbd5df545	-0.054188985
26	0x3dc182a2	0.09448744
27	0x3f1d9eb6	0.615703
28	0xbf47c03d	-0.7802771
29	0x3f31603b	0.6928746
30	0x3f88a6d1	1.0675908
31	0xbf294367	-0.6611847
32	0x3faadc06	1.3348396
33	0x3f871c94	1.0555596
34	0x3e06257c	0.13100237
35	0xc005a2d2	-2.0880628
36	0xbf934923	-1.1506695
37	0xbeeb3cf5	-0.45944944
38	0xbf369043	-0.71313876
39	0xbe5bd85b	-0.21469252
40	0xbf8b6f55	-1.0893351
41	0x3f95a923	1.1692241
42	0xbf0048c6	-0.50111043
43	0xbe3b0b2e	-0.18265983
44	0x3fd11629	1.6334888
45	0x3f8b3a0f	1.0877093
46	0xc0084315	-2.1290944
47	0xbdaaf38e	-0.083472356
48	0x3d84815c	0.06469986
49	0xbff65f52	-1.924784
50	0xbe8666da	-0.26250345
51	0xbe3c2075	-0.18371756
52	0xbefdc5d6	-0.49565
53	0x3f871692	1.0553763
54	0x3f8269ad	1.01885
55	0x3e1c7536	0.15279087
56	0x3fdee322	1.7413065
57	0x3dfe31b7	0.12411826
58	0xbe40d000	-0.18829346
59	0xc022c7f0	-2.5434532
60	0xbf0e917d	-0.5569075
61	0x3e0579f3	0.13034801
62	0x3fc4bf94	1.5370965
63	0xbf5482ee	-0.8301228

tokenizer.bool_embed.weight f4 [64, 10]
0	0xbe1a07aa	-0.15041986
1	0x3e92d5b6	0.28678674
2	0xbd9ce4eb	-0.0766085
3	0xbd9d982e	-0.076950416
4	0xbe88d6a7	-0.26726267
5	0x3e36b6ea	0.17843214
6	0xbe307898	-0.17233503
7	0x3e7257d8	0.23666322
8	0x3e90458e	0.28178066
9	0x3e9af499	0.30264738
10	0x3d4f7824	0.050651684
11	0x3e383a15	0.17990907
12	0x3e699e54	0.22814304
13	0x3e79c95b	0.24393217
14	0x3c584e18	0.013202213
15	0xbe415b3d	-0.18882461
16	0xbe2c4e74	-0.16826802
17	0xbddd4335	-0.10803834
18	0xbde7f169	-0.11325342
19	0xbe4215f8	-0.18953693
20	0x3cef2393	0.029191768
21	0xbdb2e7b4	-0.087356
22	0xbe2d62a1	-0.16932155
23	0x3d13d4ee	0.036091737
24	0x3a36570e	0.0006955721
25	0x3e3211ca	0.17389598
26	0xbea210c3	-0.31653413
27	0x3e7aa7f4	0.24478132
28	0xbe50c028	-0.20385802
29	0xbe56f841	-0.20993139
30	0x3e3b7470	0.18306136
31	0xbe63275c	-0.22182983
32	0x3e079af5	0.13242705
33	0x3e5803d5	0.21095212
34	0xbe8adeb3	-0.2712303
35	0x3e3a8bf4	0.1821745
36	0x3e0f8ca6	0.14018497
37	0xbd992b5d	-0.07478974
38	0x3dfcf711	0.12351812
39	0xbde0aec8	-0.10970837
40	0xbd381d47	-0.044949796
41	0x3e50b8fc	0.20383066
42	0xbe8d54dd	-0.27603808
43	0xbd2b18a3	-0.041771542
44	0xbce8bd59	-0.0284106
45	0xbde3b7c4	-0.11119035
46	0x3dcf668b	0.101269804
47	0xbe8772a9	-0.26454666
48	0xbe9dc6cb	-0.3081573
49	0x3db2f8f4	0.0873889
50	0x3d2ac37f	0.041690346
51	0xbe677de4	-0.22606617
52	0x3dbfe4ba	0.09369798
53	0x3e5a2d77	0.21306406
54	0xbe0716e3	-0.13192324
55	0xbe997a19	-0.29975966
56	0xbe95bc45	-0.292452
57	0x3e00af01	0.12566759
58	0xbe1d91f7	-0.15387712
59	0xbbd0c505	-0.006371143
60	0xbe986d39	-0.2977083
61	0xbe6fdf25	-0.23424967
62	0xbe74db9e	-0.23911902
63	0xbde35a61	-0.11101223
64	0x3e04ed87	0.12981234
65	0x3d244a8a	0.04011015
66	0xbe41b00b	-0.18914811
67	0xbe3d5193	-0.1848815
68	0xbda71ff7	-0.08160394
69	0xbe84f72e	-0.25969833
70	0xbea18656	-0.31547803
71	0x3e707c01	0.23484804
72	0xbe0b2c95	-0.13591225
73	0x3d383538	0.04497263
74	0x3d2ec84d	0.04267149
75	0x3d250352	0.04028637
76	0xbe9820fa	-0.2971266
77	0x3e18867c	0.14895052
78	0xbc9ebe25	-0.019377777
79	0x3df68cd3	0.12038579
80	0x3d54ec32	0.051983066
81	0xbe2cda5c	-0.16880172
82	0x3e3df209	0.1854936
83	0xbc96bdcf	-0.018401055
84	0x3d7f49af	0.06232613
85	0xbc970e7c	-0.018439524
86	0xbc1ca5d2	-0.009561019
87	0xbe80e0b5	-0.25171438
88	0x3e0ed61c	0.13948864
89	0x3e7fdf3d	0.24987502
90	0x3d130795	0.035895903
91	0xbe2cc300	-0.16871262
92	0x3cac855a	0.02105968
93	0x3e7c73e1	0.2465358
94	0xbb3c25c1	-0.0028709027
95	0x3e75b10e	0.23993322
96	0x3c0f8a23	0.008760962
97	0x3da643e7	0.0811842
98	0xbe8dd9c3	-0.27705202
99	0x3dba6d6d	0.091029026
100	0x3a8daa38	0.0010808175
101	0xbe28cd6f	-0.16484617
102	0xbe65ee36	-0.22454152
103	0x3e92e08a	0.28686935
104	0x3e4df344	0.2011233
105	0x3e9975fb	0.29972824
106	0xbb825ef3	-0.003978604
107	0x3e284a64	0.16434628
108	0x3cfb067a	0.030642737
109	0x3d111d27	0.035428192
110	0x3db282ba	0.0871634
111	0xbe4d6bb4	-0.20060617
112	0x3cbd4444	0.02310384
113	0xbe093c8b	-0.13402002
114	0x3e5b5a38	0.21421134
115	0x3e3462a4	0.17615753
116	0x3dba7a9a	0.09105416
117	0xbe4b3db4	-0.19847757
118	0xbe8f64c3	-0.28006563
119	0x3dd3fc91	0.103509076
120	0xbe6cc17e	-0.23120686
121	0xbe0b5c25	-0.13609369
122	0x3b9ff78b	0.0048818043
123	0x3ccb9018	0.024848983
124	0x3e4b4b85	0.19853027
125	0x3e7eca40	0.2488184
126	0xbd8364a2	-0.064156786
127	0xbe7110c3	-0.2354155
128	0x3ce9fd2c	0.028563105
129	0x3dceaed7	0.10091942
130	0x3e8def43	0.27721605
131	0x3aeba1ea	0.0017977331
132	0x3e50d3f8	0.2039336
133	0x3c28d16c	0.010303836
134	0xbe97edc8	-0.296736
135	0x3e73212a	0.2374312
136	0x3e899614	0.26872313
137	0x3e3ae694	0.18252021
138	0x3dd6a658	0.10480946
139	0x3e69cce3	0.22832064
140	0xbe2d61b8	-0.16931808
141	0xbe9ea93c	-0.3098849
142	0x3dc81f4a	0.09771593
143	0x3e0d72cb	0.13813321
144	0x3e9d6bc9	0.30746296
145	0xbe180088	-0.14843953
146	0x3e1246a3	0.14284758
147	0x3dfdacde	0.123864874
148	0x3e550ac5	0.2080489
149	0xbe9ad56d	-0.30240956
150	0x3c824c96	0.01590566
151	0xbe2f4214	-0.1711505
152	0xbe754591	-0.23952319
153	0xbe9fae1b	-0.3118752
154	0xbdd2a0d9	-0.102845855
155	0xbe674cb0	-0.22587848
156	0xbe9f9816	-0.3117072
157	0x3e553cfe	0.20824048
158	0xbdeaafef	-0.11459338
159	0x3d0235d7	0.031789627
160	0x3e9deb58	0.30843616
161	0xbc943b7a	-0.018094767
162	0xbd9170a8	-0.071015656
163	0x3e1bf78c	0.1523115
164	0x3e3ccdcb	0.18437879
165	0x3d46279e	0.048377626
166	0xbe5124b0	-0.20424151
167	0x3e3291cf	0.17438434
168	0xbd921af1	-0.07134045
169	0xbe58e836	-0.21182331
170	0x3e4df396	0.20112452
171	0xbe658d56	-0.22417197
172	0x3e96efe5	0.294799
173	0xbc7bb545	-0.015363042
174	0xbe684cfe	-0.2268562
175	0x3d8f5aa8	0.06999713
176	0x3e99656e	0.29960197
177	0xbd180f13	-0.03712375
178	0xbe935144	-0.28772938
179	0x3de58a8a	0.11208065
180	0xbe4a3fd5	-0.19750912
181	0xbd920a4e	-0.07130872
182	0xbe42266c	-0.1895997
183	0x3e9149b7	0.28376552
184	0xbe00ecb8	-0.12590301
185	0xbe9e8203	-0.30958566
186	0x3e95b6f8	0.29241157
187	0x3e858508	0.26078057
188	0xbdb022e2	-0.08600403
189	0xbe797462	-0.24360803
190	0x3e726b10	0.23673654
191	0xbe35e341	-0.17762472
192	0xbd775210	-0.060380995
193	0xbe9f28d4	-0.31085837
194	0xbd97832f	-0.07398068
195	0x3d002b8e	0.031291537
196	0xbe23cf2e	-0.15997002
197	0x3d0ff57b	0.035146218
198	0xbe726d74	-0.23674566
199	0x3e9bb537	0.30411693
200	0xbe8f6253	-0.28004703
201	0x3e177359	0.14790095
202	0x3d9c780f	0.07640087
203	0xba8cd1f4	-0.0010743723
204	0xbe5679ec	-0.20944947
205	0x3e98e8b7	0.29865047
206	0xbd20214b	-0.03909425
207	0x3e80f54c	0.25187147
208	0xbe954072	-0.2915073
209	0xbe91ab7e	-0.2845115
210	0xbe05b4be	-0.13057229
211	0x3dc53998	0.09630126
212	0x3e3d52a5	0.18488558
213	0xbe0c3108	-0.13690579
214	0x3d4e4031	0.050354186
215	0xbd1a89f4	-0.03772922
216	0x3e9f6ce3	0.3113776
217	0xbdb8abc2	-0.09017135
218	0x3de08e55	0.10964648
219	0x3e9f7a03	0.31147775
220	0xbe425969	-0.1897942
221	0x3db17554	0.08664957
222	0xbdafb48f	-0.08579361
223	0xbe2e8577	-0.170431
224	0xbc3e7856	-0.01162537
225	0xbe26d9ed	-0.1629407
226	0x3df30cbd	0.11867664
227	0xbe6a4db8	-0.2288121
228	0x3e5627f4	0.20913678
229	0x3e25b6c2	0.16182998
230	0x3ddf665a	0.10908194
231	0x3d75741e	0.05992519
232	0xbe330354	-0.17481738
233	0x3e20c39b	0.15699618
234	0xbe1d2d37	-0.1534928
235	0xbbe3b1aa	-0.0069486694
236	0xbe5eadfc	-0.21746057
237	0x3db318df	0.08744978
238	0xbe7481eb	-0.23877685
239	0x3e8f1961	0.2794905
240	0xbd2ea224	-0.042635098
241	0x3d2314f4	0.039814904
242	0xbe837f95	-0.25683275
243	0x3e824118	0.25440288
244	0x3c310247	0.010803766
245	0xbe761729	-0.24032272
246	0xbe108136	-0.1411179
247	0xbea2268a	-0.31670028
248	0x3e09e9d8	0.1346811
249	0xbe84329f	-0.2581987
250	0x3d9d826d	0.07690892
251	0x3e1fee76	0.1561831
252	0x3c5e8f91	0.013584034
253	0xbe3695b0	-0.17830539
254	0x3d81bf4b	0.06335314
255	0xbdd89da6	-0.10576944

tokenizer.bool_embed.bias f4 [64]
0	0x3d986745	0.07441572
1	0xbda69ccd	-0.08135376
2	0x3e1f6a7a	0.15567961
3	0x3e4d6393	0.20057516
4	0xbe37100f	-0.1787722
5	0x3c4ebe32	0.012618588
6	0x3e05a5c8	0.13051522
7	0x3da5cafa	0.08095355
8	0xbe26c816	-0.16287264
9	0xbe8dd14a	-0.27698737
10	0x3e3e620a	0.18592086
11	0xbdb8e3a8	-0.09027797
12	0x3d330f23	0.043715607
13	0xbe4f5e91	-0.20250918
14	0x3e982abd	0.29720107
15	0xbcef3f09	-0.029204862
16	0x3dddd741	0.10832072
17	0x3e4a0344	0.19727808
18	0xbe6f5c29	-0.23375
19	0xbe23e411	-0.16004969
20	0xbe90f623	-0.28312787
21	0x3d171f86	0.036895297
22	0xbe9a7cc7	-0.30173323
23	0xbd6ff4e3	-0.05858315
24	0xbd76740c	-0.060169265
25	0x3dce18c8	0.100633204
26	0x3e61dc58	0.2205671
27	0x3e36a994	0.17838126
28	0x3e8ba699	0.2727554
29	0x3d105d5e	0.035245292
30	0xbd8cee1b	-0.068813525
31	0xbd8c17e2	-0.06840493
32	0xbe864695	-0.26225725
33	0x3e83fa9b	0.25777134
34	0xbd5ca121	-0.053864602
35	0x3e0a0ac6	0.13480672
36	0xbe5e3321	-0.21699192
37	0x3d9689ef	0.073505275
38	0x3e256ac9	0.16154017
39	0xbc539408	-0.012913711
40	0xbe80093a	-0.2500704
41	0x3d30ca4c	0.043161675
42	0xbdd31d5b	-0.103083335
43	0xbe86dd37	-0.2634065
44	0xbe55be27	-0.20873319
45	0x3da24a3f	0.079243176
46	0xbe880d15	-0.2657248
47	0x3d3905ab	0.04517142
48	0xbe8be96c	-0.27326524
49	0x3e8faccd	0.28061524
50	0xbe9130c0	-0.28357506
51	0x3d34a34d	0.04410105
52	0xbe982d51	-0.29722074
53	0xbd6c754b	-0.057729047
54	0x3d1ca7fe	0.038246147
55	0xbdf60713	-0.12013068
56	0xbe5904f6	-0.21193299
57	0xbe8353f9	-0.25650004
58	0xbe1702a6	-0.14747104
59	0x3e596dce	0.21233293
60	0x3e0e8a37	0.13919912
61	0x3e19b34e	0.15009806
62	0xbe80d994	-0.25166
63	0xbdae3d07	-0.08507734

encoder.layers.0.norm1.weight f4 [64]
0	0x3f7fdee3	0.99949473
1	0x3f7fd0f1	0.99928194
2	0x3f7fdfb6	0.9995073
3	0x3f7ffa18	0.9999099
4	0x3f7fceff	0.99925226
5	0x3f800e9c	1.0004458
6	0x3f8018c1	1.0007554
7	0x3f8010cb	1.0005125
8	0x3f7fea06	0.99966466
9	0x3f7fdfa6	0.99950635
10	0x3f80111b	1.000522
11	0x3f7fe125	0.9995292
12	0x3f800abd	1.0003277
13	0x3f7fd707	0.9993748
14	0x3f8015b1	1.000662
15	0x3f7fdbb8	0.9994464
16	0x3f800a85	1.000321
17	0x3f801007	1.0004891
18	0x3f7fdf72	0.99950325
19	0x3f7fea10	0.99966526
20	0x3f7fddcc	0.9994781
21	0x3f7fe156	0.9995321
22	0x3f80116c	1.0005317
23	0x3f7fe8f7	0.9996485
24	0x3f7fe7f9	0.9996334
25	0x3f7ffe2d	0.99997216
26	0x3f7fdcfc	0.9994657
27	0x3f7fd1af	0.99929327
28	0x3f7fdaee	0.99943435
29	0x3f800eed	1.0004555
30	0x3f801e38	1.0009222
31	0x3f8012f3	1.0005783
32	0x3f7fe2d3	0.9995548
33	0x3f7fc96f	0.9991674
34	0x3f7fd821	0.9993916
35	0x3f800ff1	1.0004865
36	0x3f801978	1.0007772
37	0x3f800df4	1.0004258
38	0x3f800e74	1.0004411
39	0x3f801453	1.0006202
40	0x3f8004d6	1.0001476
41	0x3f7fdc6b	0.99945706
42	0x3f7fe117	0.99952835
43	0x3f800f90	1.0004749
44	0x3f800863	1.000256
45	0x3f7fe12e	0.9995297
46	0x3f800eab	1.0004476
47	0x3f7fdce3	0.9994642
48	0x3f7fcf6d	0.9992588
49	0x3f7fde0c	0.9994819
50	0x3f7fd520	0.9993458
51	0x3f800a58	1.0003157
52	0x3f7fdbfd	0.9994505
53	0x3f800bdb	1.0003618
54	0x3f7fdb1d	0.99943715
55	0x3f7ff047	0.9997601
56	0x3f800eeb	1.0004553
57	0x3f7fe613	0.9996044
58	0x3f7fdef2	0.9994956
59	0x3f8020cb	1.0010008
60	0x3f7fc8b4	0.99915624
61	0x3f8019c1	1.000786
62	0x3f7ff617	0.9998488
63	0x3f800eb3	1.0004486

encoder.layers.0.norm1.bias f4 [64]
0	0x3a02e99f	0.00049939187
1	0xb9fc1bf8	-0.00048086024
2	0xb9fb21df	-0.00047899687
3	0xb9613ee7	-0.00021481105
4	0x3692bfec	4.3734817e-06
5	0x3a06df7e	0.0005144997
6	0x3a023dac	0.0004968296
7	0x39a45617	0.0003134466
8	0x3a0ac61c	0.0005293803
9	0xba03fee7	-0.0005035237
10	0x3a195568	0.00058492133
11	0xb9fce9a6	-0.00048239267
12	0xb9ec5cf6	-0.0004508269
13	0x3a798498	0.0009518354
14	0xba336e0d	-0.0006844707
15	0x39e1b764	0.0004305198
16	0xb9a8fa40	-0.00032229908
17	0xb9f2af62	-0.00046288507
18	0x3a80470c	0.0009786799
19	0xba02d339	-0.0004990581
20	0x3a025717	0.0004972084
21	0xb9e451a8	-0.00043548387
22	0xb9f0daf1	-0.0004593949
23	0x39e74953	0.00044114384
24	0xb97c52ec	-0.00024063484
25	0x39ba986d	0.0003559025
26	0xba131d11	-0.0005611936
27	0xb9fd93ee	-0.00048366137
28	0x3a4533da	0.000752268
29	0x39e36577	0.0004337241
30	0x3a170e3d	0.00057623145
31	0xba2cbf48	-0.00065897824
32	0xba0206cc	-0.0004960119
33	0xba335367	-0.0006840736
34	0x3995ffb9	0.00028610023
35	0xb9ff208a	-0.00048661634
36	0xba63d94f	-0.00086917443
37	0xba08d566	-0.0005219787
38	0xba01993a	-0.0004943792
39	0x3a6b35b5	0.00089725415
40	0x39d4a5db	0.00040559363
41	0xb9f18741	-0.00046067874
42	0x3a02a4ba	0.00049836526
43	0xba02f506	-0.0004995618
44	0xba2ffbea	-0.00067132583
45	0x3a034e9e	0.00050089683
46	0x39b52a9c	0.00034554757
47	0xba21d83a	-0.0006173883
48	0x399fdace	0.00030489865
49	0xb8f0f399	-0.000114894654
50	0x3a2d7bb1	0.0006617858
51	0xba16ff72	-0.000576011
52	0x3a0cb994	0.00053682295
53	0x3a0d9636	0.00054011063
54	0x3a1f83ec	0.00060850265
55	0xba0d6725	-0.0005394093
56	0x3a0a7435	0.00052815984
57	0xba03fcea	-0.00050349406
58	0xba161644	-0.0005725364
59	0xba20bda7	-0.0006131776
60	0xba5f2a46	-0.0008513074
61	0xba525f19	-0.0008025035
62	0xb980732b	-0.0002449987
63	0x387cb66f	6.0251386e-05

encoder.layers.0.attn.in_proj_weight f4 [192, 64]
0	0xbd300f5c	-0.042983398
1	0x3bfc2cb3	0.0076957582
2	0xbdb036ed	-0.08604226
3	0x3dd58dc2	0.10427429
4	0x3d53f025	0.05174269
5	0x3ca8cb20	0.02060467
6	0x3dae6e0a	0.08517082
7	0xbd2e9bb9	-0.042628977
8	0xbdb89668	-0.09013063
9	0xbde87d0d	-0.113519765
10	0x3d2e96e7	0.04262438
11	0x3c9e3da1	0.019316496
12	0x3c3ef9b0	0.01165621
13	0x3e0d04ac	0.13771313
14	0x3da755da	0.08170672
15	0x3c29acf3	0.010356176
16	0x3e063078	0.13104427
17	0xbdf46a67	-0.11934357
18	0xbce0ede7	-0.02745719
19	0xbd19dd78	-0.037564725
20	0xbbf332d4	-0.0074218307
21	0x3dd404c6	0.10352473
22	0x3d7d61f0	0.06186098
23	0xbd4f107b	-0.050552826
24	0x3d46d8a5	0.048546452
25	0x3d2dbea1	0.042418126
26	0x3e1b8562	0.151876
27	0x3d0a2ea0	0.03373587
28	0x3bdde00e	0.006771094
29	0xbd5653d4	-0.05232604
30	0xbb96b64e	-0.004599369
31	0xbdfbbf75	-0.12292377
32	0xbdaf034d	-0.085455514
33	0xbbf87bfd	-0.00758314
34	0x3cf976e6	0.030452203
35	0xbbdabc0c	-0.006675249
36	0xbd00a892	-0.03141076
37	0xbd4797a9	-0.04872862
38	0x3e162d28	0.14665663
39	0xbc9d891b	-0.019230416
40	0xbc9b2073	-0.018936371
41	0xbca4aaac	-0.020100914
42	0xbd6adf6d	-0.05734198
43	0xbdf3b2a5	-0.11899308
44	0xbd3e4be1	-0.046459083
45	0x3b06ab8a	0.0020549023
46	0xbdcdf7b7	-0.100570135
47	0xbdb94889	-0.09047038
48	0x3e0a4b07	0.13505183
49	0xbd65a74f	-0.05606776
50	0x3dddc7ec	0.10829148
51	0x3da771aa	0.081759766
52	0xbd6d0d9f	-0.05787432
53	0xbdb023f1	-0.08600605
54	0xbdb9fc3b	-0.09081312
55	0x3e14a8bd	0.14517494
56	0x3dfc90d6	0.12332313
57	0x3d626036	0.055267535
58	0x3cc6d28d	0.02427032
59	0xbd8511d0	-0.06497538
60	0x3e1d1bf3	0.15342693
61	0x3e147fcc	0.14501876
62	0x3df36f7f	0.118865006
63	0xbcb21248	-0.021737233
64	0xbe048663	-0.1294189
65	0xbe165ebb	-0.14684574
66	0x3d012931	0.031533424
67	0x3d9c3ad2	0.076284066
68	0x3e16bc60	0.14720297
69	0xbd9004cc	-0.07032165
70	0xbd9aa036	-0.07550089
71	0x3d11e7d6	0.035621487
72	0xbe17879b	-0.14797823
73	0xbcc4e87b	-0.024036637
74	0x3e0cf805	0.13766487
75	0xbe039464	-0.12849575
76	0xbde227b4	-0.11042729
77	0x3d5194ad	0.05116718
78	0x3d38546c	0.045002386
79	0xbe1b4b92	-0.15165547
80	0x3d3cafb1	0.04606599
81	0xbcde476c	-0.027133666
82	0xbe071016	-0.1318973
83	0xbdcd2cbe	-0.100182995
84	0xbe04b8f4	-0.12961179
85	0xbd6a0372	-0.057132192
86	0xbdc830eb	-0.09774955
87	0x3de3f3ef	0.11130511
88	0x3d9a00b4	0.07519665
89	0x3dd8e3d5	0.105903305
90	0xbd205e5f	-0.0391525
91	0xbe10299d	-0.14078374
92	0xbd832e66	-0.06405334
93	0xbd880e79	-0.066433854
94	0xbe0e15bb	-0.13875477
95	0x3deac150	0.11462653
96	0xbe0cb419	-0.13740577
97	0x3de76a17	0.11299532
98	0x3c4cc9f4	0.012499321
99	0xbc65183e	-0.013982831
100	0xbc89ccf4	-0.016821362
101	0x3dc53497	0.09629171
102	0xbdb63454	-0.088966995
103	0x3dae10b5	0.0849928
104	0xbdd63b9a	-0.10460587
105	0xbd19b0d1	-0.03752214
106	0x3df6d2f0	0.12051952
107	0xbd6b5e71	-0.057463113
108	0x3ca8d3bd	0.020608777
109	0x3dcc1853	0.09965577
110	0x3e08fdd5	0.13378079
111	0xbd152c6a	-0.03641931
112	0x3d5f9bd0	0.054591954
113	0x3d4c1f3b	0.04983447
114	0xbd7130ec	-0.058884546
115	0xbdf68b42	-0.1203828
116	0x3d4d0c78	0.05006072
117	0x3d19ad88	0.037519008
118	0x3df49470	0.11942375
119	0x3d3f4826	0.046699665
120	0x3dd1ad66	0.10238151
121	0x3daca7b8	0.08430427
122	0xbd69b6b3	-0.057059
123	0x3cf19c93	0.029493606
124	0xbc58c338	-0.0132301375
125	0xbb365760	-0.0027823076
126	0x3dcd1821	0.10014368
127	0x3be79fb7	0.0070686
128	0xbe04bdf5	-0.12963088
129	0x3dc76892	0.09736742
130	0xbdcb7104	-0.099336654
131	0xbd072155	-0.032990772
132	0xbe179b77	-0.14805399
133	0xbc56b1fe	-0.01310396
134	0x3c96b5fa	0.01839732
135	0x3decd876	0.11564724
136	0x3d9c7dd5	0.07641188
137	0x3daa41ca	0.083133295
138	0x3da8b873	0.08238306
139	0x3d39c599	0.04535446
140	0x3e14d5b9	0.14534654
141	0xbc1f0103	-0.009704831
142	0xbd8355d7	-0.06412857
143	0x3dac9572	0.08426942
144	0xbda687a3	-0.081313394
145	0xbd826aaa	-0.06368001
146	0x3a22ce0c	0.0006210513
147	0x3c3f1e79	0.01166498
148	0xbd8ef338	-0.06979984
149	0x3d5caee2	0.05387772
150	0xbd888556	-0.06666057
151	0xbcf1be6d	-0.029509747
152	0x3e14b752	0.14523056
153	0xbd384099	-0.04498348
154	0xbe15661d	-0.14589734
155	0xbd761d43	-0.0600865
156	0xbdf4754f	-0.11936437
157	0xbd3a032c	-0.04541318
158	0x3dcb33c9	0.099219866
159	0xbc05184a	-0.008123467
160	0xbcfe2857	-0.031025095
161	0xbddaf476	-0.106911585
162	0x3e075174	0.13214666
163	0x3d0984c9	0.0335739
164	0xbdbb9f73	-0.09161272
165	0xbd9435b9	-0.07236809
166	0xbd06bcb0	-0.03289479
167	0xbd0c3068	-0.03422585
168	0xbd9d72b6	-0.07687895
169	0x3b1bb535	0.002375913
170	0x3d83432e	0.06409298
171	0x3d001f3d	0.03127979
172	0x3cba4aa0	0.022740662
173	0xbdf64f1d	-0.120268084
174	0x3d00f122	0.031479962
175	0x3e00c88c	0.12576503
176	0xbd9c228c	-0.07623777
177	0x3e08cb20	0.13358736
178	0xbd27349f	-0.040821668
179	0xbd84db30	-0.06487119
180	0x3c23976b	0.009984831
181	0x3e0dfde3	0.13866381
182	0x3be65cf3	0.0070301234
183	0xbd916d88	-0.071009696
184	0x3dccb02f	0.09994542
185	0x3dc9fe7b	0.098629914
186	0x3dae90fe	0.08523749
187	0xbd8dec22	-0.069298044
188	0xbb75bc6d	-0.0037496344
189	0xbd80d558	-0.06290692
190	0x3d989cc2	0.07451774
191	0x3ded01a6	0.1157258
192	0x3d35008a	0.044189967
193	0xbdb71d49	-0.089411326
194	0x3d0de67e	0.034643643
195	0x3d8c6e71	0.068570025
196	0x3c85ed6e	0.016348567
197	0xbdd3cf67	-0.10342293
198	0x3d857908	0.065172255
199	0xbdf39e95	-0.118954815
200	0x3d61b353	0.055102658
201	0x3de41c36	0.11138193
202	0x3dd2e46b	0.102974735
203	0xbdb5476b	-0.088515125
204	0x3d9c5d97	0.07635038
205	0x3dae61a8	0.0851472
206	0x3d6d2100	0.0578928
207	0x3e1312aa	0.14362589
208	0x3d805cc8	0.062676966
209	0x3c767bee	0.015044196
210	0x3c9595e7	0.018259956
211	0x3e0c98bb	0.13730137
212	0xbb732f5b	-0.0037107083
213	0x3c8edbc6	0.01743878
214	0xbd9e23bb	-0.07721659
215	0x3dd6aac2	0.10481788
216	0x3c407819	0.0117473835
217	0xbde639ff	-0.112415306
218	0x3cca11ea	0.024666745
219	0xbdf5afb9	-0.11996407
220	0xbd1737e6	-0.036918543
221	0x3dfb6a2d	0.12276111
222	0xbdfafd84	-0.122553855
223	0x3ddd83e6	0.10816173
224	0x3ddc4f69	0.10757334
225	0x3daddaa4	0.08488968
226	0x3e198710	0.14992929
227	0x3d6f88a9	0.05847994
228	0x3c24224c	0.010017943
229	0xbdb05eec	-0.08611855
230	0x3e068d32	0.13139799
231	0xbcf5f534	-0.030024149
232	0x3e06c4d0	0.13161016
233	0xbc1eaed6	-0.009685239
234	0x3d743d7f	0.05962896
235	0xbe059758	-0.13046014
236	0xbde8d874	-0.1136941
237	0x3dac2298	0.08405036
238	0xbd227a77	-0.039667573
239	0x3ccb0cb2	0.024786327
240	0xbd469dbc	-0.04849027
241	0x3cd0970d	0.025462652
242	0x3da8da4d	0.082447626
243	0xbdc0fede	-0.09423612
244	0x3db27458	0.08713597
245	0x3e0598ce	0.13046572
246	0xbd02fcb6	-0.031979285
247	0x3e1a0a39	0.15042962
248	0x3da1773b	0.078840695
249	0x3d9e1573	0.07718935
250	0x3d8d41f1	0.06897343
251	0x3e08746f	0.13325666
252	0x3df22297	0.11823004
253	0xbd2ebd6f	-0.042661127
254	0xbdd30e2d	-0.10305438
255	0xbdcf2d5f	-0.10116076

encoder.layers.0.attn.in_proj_bias f4 [192]
0	0x3a05e4ef	0.0005107661
1	0xba81746b	-0.0009876614
2	0xb9ca458c	-0.0003858026
3	0xba1ff678	-0.00061020954
4	0x39e5afed	0.0004380936
5	0xba4ddd92	-0.0007853146
6	0x3813bdde	3.522436e-05
7	0xba5f00f4	-0.0008506917
8	0xb9e02f7b	-0.00042759985
9	0xb9e02c51	-0.00042757628
10	0x39f246cd	0.00046210588
11	0x3a06e0a9	0.00051451713
12	0xba133029	-0.00056147814
13	0x3a1e8bcd	0.00060480536
14	0x3a057991	0.0005091662
15	0xb9f32ab7	-0.00046380397
16	0xba41c72c	-0.00073920446
17	0x39f3f3f5	0.00046530334
18	0xb9ea4bb4	-0.0004468836
19	0x3a0ae272	0.0005298025
20	0x39d6dd10	0.00040981965
21	0xba176650	-0.00057754386
22	0xba4a8f0c	-0.0007727004
23	0x3a03d26b	0.0005028608
24	0xb9e60731	-0.00043874377
25	0x391717eb	0.00014409392
26	0xb9ba792b	-0.00035566962
27	0xb955b2c7	-0.00020379863
28	0xb9d3a8ac	-0.00040370726
29	0xba060faf	-0.00051140314
30	0xb8c8fc11	-9.583694e-05
31	0x39d5bad5	0.00040765727
32	0x3a02b042	0.0004985371
33	0xba631d53	-0.00086637324
34	0x3906538d	0.00012810361
35	0xba16fd4c	-0.000575979
36	0x39ea3d7e	0.00044677773
37	0xba2ac38b	-0.00065141235
38	0xba581ea0	-0.00082443096
39	0xba03be0e	-0.0005025574
40	0x3a02fe20	0.0004996974
41	0xba3e2a0d	-0.0007254191
42	0xb95a17a3	-0.00020798905
43	0xba1b3b58	-0.00059216237
44	0x39d36daa	0.00040326762
45	0xba37acb7	-0.00070066325
46	0xb9e074b7	-0.0004281157
47	0x3a6c958f	0.00090249715
48	0x3a589ad5	0.0008262818
49	0x39f0aad3	0.0004590364
50	0x39af140f	0.00033393546
51	0x3a839568	0.0010039033
52	0x39fc3f86	0.00048112514
53	0xb9cda142	-0.00039220793
54	0x3a52d101	0.0008042008
55	0xb9eb436d	-0.0004487293
56	0x39b2bc8f	0.00034091293
57	0x399fa272	0.00030447874
58	0xba20df2e	-0.0006136772
59	0x39f72cf2	0.00047144998
60	0x3a063089	0.00051189266
61	0xb9cb7216	-0.00038804178
62	0x39dc487f	0.00042015684
63	0x399227c5	0.0002787692
64	0xb545ed47	-7.3733503e-07
65	0xb519db4b	-5.7316055e-07
66	0xb6bcf047	-5.6308086e-06
67	0xb67e54e1	-3.7898355e-06
68	0x35171d12	5.6294186e-07
69	0x3372153b	5.6364325e-08
70	0x33f3858a	1.133986e-07
71	0x35fbd6ac	1.8763435e-06
72	0x3664b338	3.4078967e-06
73	0xb7505746	-1.2418086e-05
74	0xb70d2973	-8.413906e-06
75	0xb65524a2	-3.1760796e-06
76	0xb61a05bf	-2.2951133e-06
77	0xb4036308	-1.2236353e-07
78	0x349bdc78	2.9031412e-07
79	0xb5b84f00	-1.373206e-06
80	0x36c6fe90	5.930495e-06
81	0xb7887e91	-1.62714e-05
82	0xb658fb3d	-3.2332748e-06
83	0xb26e26e8	-1.38622696e-08
84	0xb64ea577	-3.0792705e-06
85	0x35a407e1	1.2221245e-06
86	0x36d33582	6.294519e-06
87	0x361060ad	2.1513945e-06
88	0xb7d53c0c	-2.541954e-05
89	0xb782e42a	-1.5603455e-05
90	0xb690f2fe	-4.3198224e-06
91	0x3721935d	9.6306585e-06
92	0x3507ae06	5.0544656e-07
93	0x36a3dfaa	4.8838165e-06
94	0xb5abe2ef	-1.2806539e-06
95	0x36867491	4.0070813e-06
96	0x36fa640e	7.4622285e-06
97	0x37d4fcbd	2.539006e-05
98	0x37577232	1.2841587e-05
99	0xb60f509d	-2.1355584e-06
100	0xb8105768	-3.441368e-05
101	0xb6003468	-1.910399e-06
102	0xb640460c	-2.8651002e-06
103	0x3684f019	3.9618576e-06
104	0xb5d06b3f	-1.552842e-06
105	0x350902be	5.104047e-07
106	0xb229e51c	-9.889188e-09
107	0xb6d9fcff	-6.4965566e-06
108	0xb640cce9	-2.8729503e-06
109	0xb6a68495	-4.96262e-06
110	0x376de66a	1.4179948e-05
111	0x36076877	2.0177374e-06
112	0xb4bf7039	-3.5658175e-07
113	0xb60e03da	-2.116189e-06
114	0x37092097	8.173424e-06
115	0x36b6f8d5	5.4529905e-06
116	0x371bea3c	9.293257e-06
117	0xb70154a7	-7.708709e-06
118	0x36c30521	5.81205e-06
119	0x358c3776	1.0446954e-06
120	0x36cf5105	6.1785126e-06
121	0x35c5917e	1.4719988e-06
122	0x33bdec23	8.843951e-08
123	0xb58a955f	-1.0325274e-06
124	0x36b8fec1	5.5132846e-06
125	0xb67a0cc6	-3.7260338e-06
126	0xb73a9cf9	-1.1123012e-05
127	0xb4244002	-1.5296976e-07
128	0xba0610d1	-0.00051142
129	0xba2f1e9c	-0.00066802814
130	0xba785d36	-0.0009474339
131	0xb9fbbd72	-0.00048015598
132	0x3a298417	0.00064665213
133	0xba0d3fa4	-0.00053882063
134	0xba13613d	-0.00056220946
135	0x3a0eb564	0.00054438994
136	0x3a01359e	0.0004928949
137	0xb9ee0da9	-0.00045405075
138	0xb9fedda6	-0.00048611796
139	0xba1841cc	-0.00058081443
140	0xb9978a77	-0.0002890413
141	0x3a0c1fac	0.00053452956
142	0xb9ff03b4	-0.0004864015
143	0x3a1b3876	0.0005921194
144	0xba09f62f	-0.00052628195
145	0x39e022ac	0.00042750442
146	0x3a240ffb	0.0006258485
147	0xba043723	-0.00050436164
148	0xb9f2c5f9	-0.00046305338
149	0xb994e237	-0.00028397303
150	0x3a4abd57	0.00077339023
151	0x3a13933f	0.00056295464
152	0x39a5f11f	0.00031650902
153	0xb9ef0572	-0.0004558969
154	0x39d78b8e	0.00041111972
155	0xb9fcf8da	-0.00048250594
156	0xba242e50	-0.00062630046
157	0xba014c5d	-0.00049323385
158	0x395f309a	0.00021285043
159	0x38d8561c	0.00010315722
160	0xb9ff9714	-0.00048749952
161	0xb9f2bd7b	-0.0004629901
162	0xba14da38	-0.0005678269
163	0x3a0e4d7e	0.00054284174
164	0xba22fa13	-0.00062170735
165	0x3a26fded	0.00063702354
166	0x3a0de64b	0.00054130395
167	0x3a1a33ba	0.00058823416
168	0x39f39df4	0.00046466256
169	0xb9f4683a	-0.00046616961
170	0x39bd2ce1	0.00036082327
171	0x39a2bd66	0.0003104016
172	0x3a1210e2	0.0005571974
173	0x3a1a1689	0.0005877992
174	0xb9a16ae2	-0.00030787947
175	0x3a0adb01	0.00052969164
176	0xb73a8fe0	-1.1119962e-05
177	0xba2d0038	-0.0006599459
178	0x39c67d9f	0.00037859098
179	0x39e67131	0.00043953353
180	0xb9f31921	-0.00046367294
181	0x3a014fec	0.0004932869
182	0xb9ff8e41	-0.00048743378
183	0xb7198587	-9.1506e-06
184	0xba247563	-0.00062735955
185	0x39e9cae6	0.00044592394
186	0xb9cdf836	-0.00039285579
187	0xb928424a	-0.00016046423
188	0xba03ab31	-0.0005022763
189	0x39b904b2	0.00035289448
190	0x39f40401	0.0004654229
191	0x39ffee82	0.00048815092
